…
  level: 0
  stage: ""
}
I0418 09:55:33.368288 57880 solver.cpp:87] Creating training net from net file: VDSR_net.prototxt
I0418 09:55:33.368692 57880 net.cpp:294] The NetState phase (0) differed from the phase (1) specified by a rule in layer data
I0418 09:55:33.368808 57880 net.cpp:51] Initializing net from parameters: 
name: "VDSR"
state {
  phase: TRAIN
  level: 0
  stage: ""
}
layer {
  name: "data"
  type: "HDF5Data"
  top: "data"
  top: "label"
  include {
    phase: TRAIN
  }
  hdf5_data_param {
    source: "train.txt"
    batch_size: 64
  }
}
layer {
  name: "data_pool1"
  type: "Pooling"
  bottom: "data"
  top: "data_pool1"
  pooling_param {
    pool: MAX
    kernel_size: 2
    stride: 2
  }
}
layer {
  name: "data_pool2"
  type: "Pooling"
  bottom: "data_pool1"
  top: "data_pool2"
  pooling_param {
    pool: MAX
    kernel_size: 2
    stride: 2
  }
}
layer {
  name: "conv1"
  type: "Convolution"
  bottom: "data"
  top: "conv1"
  param {
    lr_mult: 1
  }
  param {
    lr_mult: 0.1
  }
  convolution_param {
    num_output: 64
    pad: 1
    kernel_size: 3
    stride: 1
    weight_filler {
      type: "msra"
    }
    bias_filler {
      type: "constant"
    }
  }
}
layer {
  name: "relu1"
  type: "ReLU"
  bottom: "conv1"
  top: "conv1"
}
layer {
  name: "pool1"
  type: "Pooling"
  bottom: "conv1"
  top: "pool1"
  pooling_param {
    pool: MAX
    kernel_size: 2
    stride: 2
  }
}
layer {
  name: "conv2"
  type: "Convolution"
  bottom: "pool1"
  top: "conv2"
  param {
    lr_mult: 1
  }
  param {
    lr_mult: 0.1
  }
  convolution_param {
    num_output: 64
    pad: 1
    kernel_size: 3
    stride: 1
    weight_filler {
      type: "msra"
    }
    bias_filler {
      type: "constant"
    }
  }
}
layer {
  name: "relu2"
  type: "ReLU"
  bottom: "conv2"
  top: "conv2"
}
layer {
  name: "pool2"
  type: "Pooling"
  bottom: "conv2"
  top: "pool2"
  pooling_param {
    pool: MAX
    kernel_size: 2
    stride: 2
  }
}
layer {
  name: "conv3"
  type: "Convolution"
  bottom: "pool2"
  top: "conv3"
  param {
    lr_mult: 1
  }
  param {
    lr_mult: 0.1
  }
  convolution_param {
    num_output: 1
    pad: 1
    kernel_size: 3
    stride: 1
    weight_filler {
      type: "msra"
    }
    bias_filler {
      type: "constant"
    }
  }
}
layer {
  name: "relu3"
  type: "ReLU"
  bottom: "conv3"
  top: "conv3"
}
layer {
  name: "sum"
  type: "Eltwise"
  bottom: "data_pool2"
  bottom: "conv3"
  top: "sum"
  eltwise_param {
    operation: SUM
  }
}
layer {
  name: "loss"
  type: "EuclideanLoss"
  bottom: "sum"
  bottom: "label"
  top: "loss"
}
I0418 09:55:33.368917 57880 layer_factory.hpp:77] Creating layer data
I0418 09:55:33.368940 57880 net.cpp:84] Creating Layer data
I0418 09:55:33.368949 57880 net.cpp:380] data -> data
I0418 09:55:33.368975 57880 net.cpp:380] data -> label
I0418 09:55:33.368988 57880 hdf5_data_layer.cpp:80] Loading list of HDF5 filenames from: train.txt
I0418 09:55:33.369021 57880 hdf5_data_layer.cpp:94] Number of HDF5 files: 1
I0418 09:55:33.370059 57880 hdf5.cpp:32] Datatype class: H5T_FLOAT
I0418 09:55:34.151549 57880 net.cpp:122] Setting up data
I0418 09:55:34.151623 57880 net.cpp:129] Top shape: 64 1 40 40 (102400)
I0418 09:55:34.151643 57880 net.cpp:129] Top shape: 64 1 10 10 (6400)
I0418 09:55:34.151648 57880 net.cpp:137] Memory required for data: 435200
I0418 09:55:34.151665 57880 layer_factory.hpp:77] Creating layer data_data_0_split
I0418 09:55:34.151713 57880 net.cpp:84] Creating Layer data_data_0_split
I0418 09:55:34.151733 57880 net.cpp:406] data_data_0_split <- data
I0418 09:55:34.151748 57880 net.cpp:380] data_data_0_split -> data_data_0_split_0
I0418 09:55:34.151787 57880 net.cpp:380] data_data_0_split -> data_data_0_split_1
I0418 09:55:34.151849 57880 net.cpp:122] Setting up data_data_0_split
I0418 09:55:34.151861 57880 net.cpp:129] Top shape: 64 1 40 40 (102400)
I0418 09:55:34.151866 57880 net.cpp:129] Top shape: 64 1 40 40 (102400)
I0418 09:55:34.151870 57880 net.cpp:137] Memory required for data: 1254400
I0418 09:55:34.151873 57880 layer_factory.hpp:77] Creating layer data_pool1
I0418 09:55:34.151886 57880 net.cpp:84] Creating Layer data_pool1
I0418 09:55:34.151891 57880 net.cpp:406] data_pool1 <- data_data_0_split_0
I0418 09:55:34.151896 57880 net.cpp:380] data_pool1 -> data_pool1
I0418 09:55:34.151973 57880 net.cpp:122] Setting up data_pool1
I0418 09:55:34.151983 57880 net.cpp:129] Top shape: 64 1 20 20 (25600)
I0418 09:55:34.151988 57880 net.cpp:137] Memory required for data: 1356800
I0418 09:55:34.151991 57880 layer_factory.hpp:77] Creating layer data_pool2
I0418 09:55:34.151998 57880 net.cpp:84] Creating Layer data_pool2
I0418 09:55:34.152004 57880 net.cpp:406] data_pool2 <- data_pool1
I0418 09:55:34.152009 57880 net.cpp:380] data_pool2 -> data_pool2
I0418 09:55:34.152040 57880 net.cpp:122] Setting up data_pool2
I0418 09:55:34.152050 57880 net.cpp:129] Top shape: 64 1 10 10 (6400)
I0418 09:55:34.152053 57880 net.cpp:137] Memory required for data: 1382400
I0418 09:55:34.152057 57880 layer_factory.hpp:77] Creating layer conv1
I0418 09:55:34.152077 57880 net.cpp:84] Creating Layer conv1
I0418 09:55:34.152097 57880 net.cpp:406] conv1 <- data_data_0_split_1
I0418 09:55:34.152104 57880 net.cpp:380] conv1 -> conv1
I0418 09:55:34.153877 57880 net.cpp:122] Setting up conv1
I0418 09:55:34.153892 57880 net.cpp:129] Top shape: 64 64 40 40 (6553600)
I0418 09:55:34.153897 57880 net.cpp:137] Memory required for data: 27596800
I0418 09:55:34.153911 57880 layer_factory.hpp:77] Creating layer relu1
I0418 09:55:34.153920 57880 net.cpp:84] Creating Layer relu1
I0418 09:55:34.153924 57880 net.cpp:406] relu1 <- conv1
I0418 09:55:34.153929 57880 net.cpp:367] relu1 -> conv1 (in-place)
I0418 09:55:34.153952 57880 net.cpp:122] Setting up relu1
I0418 09:55:34.153959 57880 net.cpp:129] Top shape: 64 64 40 40 (6553600)
I0418 09:55:34.153962 57880 net.cpp:137] Memory required for data: 53811200
I0418 09:55:34.153966 57880 layer_factory.hpp:77] Creating layer pool1
I0418 09:55:34.153973 57880 net.cpp:84] Creating Layer pool1
I0418 09:55:34.153976 57880 net.cpp:406] pool1 <- conv1
I0418 09:55:34.153981 57880 net.cpp:380] pool1 -> pool1
I0418 09:55:34.154019 57880 net.cpp:122] Setting up pool1
I0418 09:55:34.154026 57880 net.cpp:129] Top shape: 64 64 20 20 (1638400)
I0418 09:55:34.154029 57880 net.cpp:137] Memory required for data: 60364800
I0418 09:55:34.154033 57880 layer_factory.hpp:77] Creating layer conv2
I0418 09:55:34.154043 57880 net.cpp:84] Creating Layer conv2
I0418 09:55:34.154047 57880 net.cpp:406] conv2 <- pool1
I0418 09:55:34.154053 57880 net.cpp:380] conv2 -> conv2
I0418 09:55:34.155938 57880 net.cpp:122] Setting up conv2
I0418 09:55:34.155968 57880 net.cpp:129] Top shape: 64 64 20 20 (1638400)
I0418 09:55:34.155973 57880 net.cpp:137] Memory required for data: 66918400
I0418 09:55:34.155983 57880 layer_factory.hpp:77] Creating layer relu2
I0418 09:55:34.155992 57880 net.cpp:84] Creating Layer relu2
I0418 09:55:34.156008 57880 net.cpp:406] relu2 <- conv2
I0418 09:55:34.156014 57880 net.cpp:367] relu2 -> conv2 (in-place)
I0418 09:55:34.156034 57880 net.cpp:122] Setting up relu2
I0418 09:55:34.156039 57880 net.cpp:129] Top shape: 64 64 20 20 (1638400)
I0418 09:55:34.156042 57880 net.cpp:137] Memory required for data: 73472000
I0418 09:55:34.156046 57880 layer_factory.hpp:77] Creating layer pool2
I0418 09:55:34.156054 57880 net.cpp:84] Creating Layer pool2
I0418 09:55:34.156056 57880 net.cpp:406] pool2 <- conv2
I0418 09:55:34.156061 57880 net.cpp:380] pool2 -> pool2
I0418 09:55:34.156100 57880 net.cpp:122] Setting up pool2
I0418 09:55:34.156107 57880 net.cpp:129] Top shape: 64 64 10 10 (409600)
I0418 09:55:34.156111 57880 net.cpp:137] Memory required for data: 75110400
I0418 09:55:34.156116 57880 layer_factory.hpp:77] Creating layer conv3
I0418 09:55:34.156138 57880 net.cpp:84] Creating Layer conv3
I0418 09:55:34.156142 57880 net.cpp:406] conv3 <- pool2
I0418 09:55:34.156149 57880 net.cpp:380] conv3 -> conv3
I0418 09:55:34.156379 57880 net.cpp:122] Setting up conv3
I0418 09:55:34.156391 57880 net.cpp:129] Top shape: 64 1 10 10 (6400)
I0418 09:55:34.156407 57880 net.cpp:137] Memory required for data: 75136000
I0418 09:55:34.156417 57880 layer_factory.hpp:77] Creating layer relu3
I0418 09:55:34.156424 57880 net.cpp:84] Creating Layer relu3
I0418 09:55:34.156428 57880 net.cpp:406] relu3 <- conv3
I0418 09:55:34.156433 57880 net.cpp:367] relu3 -> conv3 (in-place)
I0418 09:55:34.156441 57880 net.cpp:122] Setting up relu3
I0418 09:55:34.156446 57880 net.cpp:129] Top shape: 64 1 10 10 (6400)
I0418 09:55:34.156450 57880 net.cpp:137] Memory required for data: 75161600
I0418 09:55:34.156453 57880 layer_factory.hpp:77] Creating layer sum
I0418 09:55:34.156461 57880 net.cpp:84] Creating Layer sum
I0418 09:55:34.156466 57880 net.cpp:406] sum <- data_pool2
I0418 09:55:34.156469 57880 net.cpp:406] sum <- conv3
I0418 09:55:34.156474 57880 net.cpp:380] sum -> sum
I0418 09:55:34.156515 57880 net.cpp:122] Setting up sum
I0418 09:55:34.156525 57880 net.cpp:129] Top shape: 64 1 10 10 (6400)
I0418 09:55:34.156528 57880 net.cpp:137] Memory required for data: 75187200
I0418 09:55:34.156533 57880 layer_factory.hpp:77] Creating layer loss
I0418 09:55:34.156543 57880 net.cpp:84] Creating Layer loss
I0418 09:55:34.156548 57880 net.cpp:406] loss <- sum
I0418 09:55:34.156551 57880 net.cpp:406] loss <- label
I0418 09:55:34.156558 57880 net.cpp:380] loss -> loss
I0418 09:55:34.156595 57880 net.cpp:122] Setting up loss
…
I0418 09:55:34.156690 57880 net.cpp:255] Network initialization done.
I0418 09:55:34.157078 57880 solver.cpp:172] Creating test net (#0) specified by net file: VDSR_net.prototxt
I0418 09:55:34.157181 57880 net.cpp:294] The NetState phase (1) differed from the phase (0) specified by a rule in layer data
I0418 09:55:34.157289 57880 net.cpp:51] Initializing net from parameters: 
name: "VDSR"
state {
  phase: TEST
}
layer {
  name: "data"
  type: "HDF5Data"
  top: "data"
  top: "label"
  include {
    phase: TEST
  }
  hdf5_data_param {
    source: "test.txt"
    batch_size: 2
  }
}
layer {
  name: "data_pool1"
  type: "Pooling"
  bottom: "data"
  top: "data_pool1"
  pooling_param {
    pool: MAX
    kernel_size: 2
    stride: 2
  }
}
layer {
  name: "data_pool2"
  type: "Pooling"
  bottom: "data_pool1"
  top: "data_pool2"
  pooling_param {
    pool: MAX
    kernel_size: 2
    stride: 2
  }
}
layer {
  name: "conv1"
  type: "Convolution"
  bottom: "data"
  top: "conv1"
  param {
    lr_mult: 1
  }
  param {
    lr_mult: 0.1
  }
  convolution_param {
    num_output: 64
    pad: 1
    kernel_size: 3
    stride: 1
    weight_filler {
      type: "msra"
    }
    bias_filler {
      type: "constant"
    }
  }
}
layer {
  name: "relu1"
  type: "ReLU"
  bottom: "conv1"
  top: "conv1"
}
layer {
  name: "pool1"
  type: "Pooling"
  bottom: "conv1"
  top: "pool1"
  pooling_param {
    pool: MAX
    kernel_size: 2
    stride: 2
  }
}
layer {
  name: "conv2"
  type: "Convolution"
  bottom: "pool1"
  top: "conv2"
  param {
    lr_mult: 1
  }
  param {
    lr_mult: 0.1
  }
  convolution_param {
    num_output: 64
    pad: 1
    kernel_size: 3
    stride: 1
    weight_filler {
      type: "msra"
    }
    bias_filler {
      type: "constant"
    }
  }
}
layer {
  name: "relu2"
  type: "ReLU"
  bottom: "conv2"
  top: "conv2"
}
layer {
  name: "pool2"
  type: "Pooling"
  bottom: "conv2"
  top: "pool2"
  pooling_param {
    pool: MAX
    kernel_size: 2
    stride: 2
  }
}
layer {
  name: "conv3"
  type: "Convolution"
  bottom: "pool2"
  top: "conv3"
  param {
    lr_mult: 1
  }
  param {
    lr_mult: 0.1
  }
  convolution_param {
    num_output: 1
    pad: 1
    kernel_size: 3
    stride: 1
    weight_filler {
      type: "msra"
    }
    bias_filler {
      type: "constant"
    }
  }
}
layer {
  name: "relu3"
  type: "ReLU"
  bottom: "conv3"
  top: "conv3"
}
layer {
  name: "sum"
  type: "Eltwise"
  bottom: "data_pool2"
  bottom: "conv3"
  top: "sum"
  eltwise_param {
    operation: SUM
  }
}
layer {
  name: "loss"
  type: "EuclideanLoss"
  bottom: "sum"
  bottom: "label"
  top: "loss"
}
I0418 09:55:34.157372 57880 layer_factory.hpp:77] Creating layer data
I0418 09:55:34.157382 57880 net.cpp:84] Creating Layer data
I0418 09:55:34.157387 57880 net.cpp:380] data -> data
I0418 09:55:34.157395 57880 net.cpp:380] data -> label
I0418 09:55:34.157403 57880 hdf5_data_layer.cpp:80] Loading list of HDF5 filenames from: test.txt
I0418 09:55:34.157423 57880 hdf5_data_layer.cpp:94] Number of HDF5 files: 1
I0418 09:55:34.352902 57880 net.cpp:122] Setting up data
I0418 09:55:34.352944 57880 net.cpp:129] Top shape: 2 1 40 40 (3200)
I0418 09:55:34.352951 57880 net.cpp:129] Top shape: 2 1 10 10 (200)
I0418 09:55:34.352954 57880 net.cpp:137] Memory required for data: 13600
I0418 09:55:34.352960 57880 layer_factory.hpp:77] Creating layer data_data_0_split
I0418 09:55:34.352975 57880 net.cpp:84] Creating Layer data_data_0_split
I0418 09:55:34.352979 57880 net.cpp:406] data_data_0_split <- data
I0418 09:55:34.352987 57880 net.cpp:380] data_data_0_split -> data_data_0_split_0
I0418 09:55:34.353010 57880 net.cpp:380] data_data_0_split -> data_data_0_split_1
I0418 09:55:34.353042 57880 net.cpp:122] Setting up data_data_0_split
I0418 09:55:34.353049 57880 net.cpp:129] Top shape: 2 1 40 40 (3200)
I0418 09:55:34.353054 57880 net.cpp:129] Top shape: 2 1 40 40 (3200)
I0418 09:55:34.353056 57880 net.cpp:137] Memory required for data: 39200
I0418 09:55:34.353060 57880 layer_factory.hpp:77] Creating layer data_pool1
I0418 09:55:34.353080 57880 net.cpp:84] Creating Layer data_pool1
I0418 09:55:34.353085 57880 net.cpp:406] data_pool1 <- data_data_0_split_0
I0418 09:55:34.353091 57880 net.cpp:380] data_pool1 -> data_pool1
I0418 09:55:34.353122 57880 net.cpp:122] Setting up data_pool1
I0418 09:55:34.353129 57880 net.cpp:129] Top shape: 2 1 20 20 (800)
I0418 09:55:34.353132 57880 net.cpp:137] Memory required for data: 42400
I0418 09:55:34.353135 57880 layer_factory.hpp:77] Creating layer data_pool2
I0418 09:55:34.353142 57880 net.cpp:84] Creating Layer data_pool2
I0418 09:55:34.353144 57880 net.cpp:406] data_pool2 <- data_pool1
I0418 09:55:34.353149 57880 net.cpp:380] data_pool2 -> data_pool2
I0418 09:55:34.353176 57880 net.cpp:122] Setting up data_pool2
I0418 09:55:34.353183 57880 net.cpp:129] Top shape: 2 1 10 10 (200)
I0418 09:55:34.353186 57880 net.cpp:137] Memory required for data: 43200
I0418 09:55:34.353189 57880 layer_factory.hpp:77] Creating layer conv1
I0418 09:55:34.353204 57880 net.cpp:84] Creating Layer conv1
I0418 09:55:34.353207 57880 net.cpp:406] conv1 <- data_data_0_split_1
I0418 09:55:34.353236 57880 net.cpp:380] conv1 -> conv1
I0418 09:55:34.353489 57880 net.cpp:122] Setting up conv1
I0418 09:55:34.353502 57880 net.cpp:129] Top shape: 2 64 40 40 (204800)
I0418 09:55:34.353519 57880 net.cpp:137] Memory required for data: 862400
I0418 09:55:34.353529 57880 layer_factory.hpp:77] Creating layer relu1
I0418 09:55:34.353536 57880 net.cpp:84] Creating Layer relu1
I0418 09:55:34.353540 57880 net.cpp:406] relu1 <- conv1
I0418 09:55:34.353546 57880 net.cpp:367] relu1 -> conv1 (in-place)
I0418 09:55:34.353552 57880 net.cpp:122] Setting up relu1
I0418 09:55:34.353557 57880 net.cpp:129] Top shape: 2 64 40 40 (204800)
I0418 09:55:34.353560 57880 net.cpp:137] Memory required for data: 1681600
I0418 09:55:34.353579 57880 layer_factory.hpp:77] Creating layer pool1
I0418 09:55:34.353597 57880 net.cpp:84] Creating Layer pool1
I0418 09:55:34.353601 57880 net.cpp:406] pool1 <- conv1
I0418 09:55:34.353605 57880 net.cpp:380] pool1 -> pool1
I0418 09:55:34.353641 57880 net.cpp:122] Setting up pool1
I0418 09:55:34.353649 57880 net.cpp:129] Top shape: 2 64 20 20 (51200)
I0418 09:55:34.353652 57880 net.cpp:137] Memory required for data: 1886400
I0418 09:55:34.353657 57880 layer_factory.hpp:77] Creating layer conv2
I0418 09:55:34.353664 57880 net.cpp:84] Creating Layer conv2
I0418 09:55:34.353668 57880 net.cpp:406] conv2 <- pool1
I0418 09:55:34.353674 57880 net.cpp:380] conv2 -> conv2
I0418 09:55:34.354938 57880 net.cpp:122] Setting up conv2
I0418 09:55:34.354949 57880 net.cpp:129] Top shape: 2 64 20 20 (51200)
I0418 09:55:34.354953 57880 net.cpp:137] Memory required for data: 2091200
I0418 09:55:34.354959 57880 layer_factory.hpp:77] Creating layer relu2
I0418 09:55:34.354965 57880 net.cpp:84] Creating Layer relu2
I0418 09:55:34.354969 57880 net.cpp:406] relu2 <- conv2
I0418 09:55:34.354974 57880 net.cpp:367] relu2 -> conv2 (in-place)
I0418 09:55:34.354979 57880 net.cpp:122] Setting up relu2
I0418 09:55:34.354982 57880 net.cpp:129] Top shape: 2 64 20 20 (51200)
I0418 09:55:34.354985 57880 net.cpp:137] Memory required for data: 2296000
I0418 09:55:34.354987 57880 layer_factory.hpp:77] Creating layer pool2
I0418 09:55:34.354992 57880 net.cpp:84] Creating Layer pool2
I0418 09:55:34.355008 57880 net.cpp:406] pool2 <- conv2
I0418 09:55:34.355012 57880 net.cpp:380] pool2 -> pool2
I0418 09:55:34.355043 57880 net.cpp:122] Setting up pool2
I0418 09:55:34.355051 57880 net.cpp:129] Top shape: 2 64 10 10 (12800)
I0418 09:55:34.355053 57880 net.cpp:137] Memory required for data: 2347200
I0418 09:55:34.355057 57880 layer_factory.hpp:77] Creating layer conv3
I0418 09:55:34.355064 57880 net.cpp:84] Creating Layer conv3
I0418 09:55:34.355067 57880 net.cpp:406] conv3 <- pool2
I0418 09:55:34.355073 57880 net.cpp:380] conv3 -> conv3
I0418 09:55:34.355283 57880 net.cpp:122] Setting up conv3
I0418 09:55:34.355293 57880 net.cpp:129] Top shape: 2 1 10 10 (200)
I0418 09:55:34.355296 57880 net.cpp:137] Memory required for data: 2348000
I0418 09:55:34.355304 57880 layer_factory.hpp:77] Creating layer relu3
I0418 09:55:34.355310 57880 net.cpp:84] Creating Layer relu3
I0418 09:55:34.355314 57880 net.cpp:406] relu3 <- conv3
I0418 09:55:34.355319 57880 net.cpp:367] relu3 -> conv3 (in-place)
I0418 09:55:34.355324 57880 net.cpp:122] Setting up relu3
I0418 09:55:34.355329 57880 net.cpp:129] Top shape: 2 1 10 10 (200)
I0418 09:55:34.355332 57880 net.cpp:137] Memory required for data: 2348800
I0418 09:55:34.355335 57880 layer_factory.hpp:77] Creating layer sum
I0418 09:55:34.355341 57880 net.cpp:84] Creating Layer sum
I0418 09:55:34.355345 57880 net.cpp:406] sum <- data_pool2
I0418 09:55:34.355348 57880 net.cpp:406] sum <- conv3
I0418 09:55:34.355353 57880 net.cpp:380] sum -> sum
I0418 09:55:34.355389 57880 net.cpp:122] Setting up sum
I0418 09:55:34.355396 57880 net.cpp:129] Top shape: 2 1 10 10 (200)
I0418 09:55:34.355398 57880 net.cpp:137] Memory required for data: 2349600
I0418 09:55:34.355401 57880 layer_factory.hpp:77] Creating layer loss
I0418 09:55:34.355407 57880 net.cpp:84] Creating Layer loss
I0418 09:55:34.355410 57880 net.cpp:406] loss <- sum
I0418 09:55:34.355422 57880 net.cpp:406] loss <- label
I0418 09:55:34.355427 57880 net.cpp:380] loss -> loss
I0418 09:55:34.355458 57880 net.cpp:122] Setting up loss
…
