…
  level: 0
  stage: ""
}
I0418 09:17:08.737432 52414 solver.cpp:87] Creating training net from net file: VDSR_net.prototxt
I0418 09:17:08.737854 52414 net.cpp:294] The NetState phase (0) differed from the phase (1) specified by a rule in layer data
I0418 09:17:08.737973 52414 net.cpp:51] Initializing net from parameters: 
name: "VDSR"
state {
  phase: TRAIN
  level: 0
  stage: ""
}
layer {
  name: "data"
  type: "HDF5Data"
  top: "data"
  top: "label"
  include {
    phase: TRAIN
  }
  hdf5_data_param {
    source: "train.txt"
    batch_size: 64
  }
}
layer {
  name: "data_pool1"
  type: "Pooling"
  bottom: "data"
  top: "data_pool1"
  pooling_param {
    pool: MAX
    kernel_size: 2
    stride: 2
  }
}
layer {
  name: "data_pool2"
  type: "Pooling"
  bottom: "data_pool1"
  top: "data_pool2"
  pooling_param {
    pool: MAX
    kernel_size: 2
    stride: 2
  }
}
layer {
  name: "conv1"
  type: "Convolution"
  bottom: "data"
  top: "conv1"
  param {
    lr_mult: 1
  }
  param {
    lr_mult: 0.1
  }
  convolution_param {
    num_output: 64
    pad: 1
    kernel_size: 3
    stride: 1
    weight_filler {
      type: "msra"
    }
    bias_filler {
      type: "constant"
    }
  }
}
layer {
  name: "relu1"
  type: "ReLU"
  bottom: "conv1"
  top: "conv1"
}
layer {
  name: "pool1"
  type: "Pooling"
  bottom: "conv1"
  top: "pool1"
  pooling_param {
    pool: MAX
    kernel_size: 2
    stride: 2
  }
}
layer {
  name: "conv2"
  type: "Convolution"
  bottom: "pool1"
  top: "conv2"
  param {
    lr_mult: 1
  }
  param {
    lr_mult: 0.1
  }
  convolution_param {
    num_output: 64
    pad: 1
    kernel_size: 3
    stride: 1
    weight_filler {
      type: "msra"
    }
    bias_filler {
      type: "constant"
    }
  }
}
layer {
  name: "relu2"
  type: "ReLU"
  bottom: "conv2"
  top: "conv2"
}
layer {
  name: "pool2"
  type: "Pooling"
  bottom: "conv2"
  top: "pool2"
  pooling_param {
    pool: MAX
    kernel_size: 2
    stride: 2
  }
}
layer {
  name: "conv3"
  type: "Convolution"
  bottom: "pool2"
  top: "conv3"
  param {
    lr_mult: 1
  }
  param {
    lr_mult: 0.1
  }
  convolution_param {
    num_output: 1
    pad: 1
    kernel_size: 3
    stride: 1
    weight_filler {
      type: "msra"
    }
    bias_filler {
      type: "constant"
    }
  }
}
layer {
  name: "relu3"
  type: "ReLU"
  bottom: "conv3"
  top: "conv3"
}
layer {
  name: "sum"
  type: "Eltwise"
  bottom: "data_pool2"
  bottom: "conv3"
  top: "sum"
  eltwise_param {
    operation: SUM
  }
}
layer {
  name: "loss"
  type: "EuclideanLoss"
  bottom: "sum"
  bottom: "label"
  top: "loss"
}
I0418 09:17:08.738080 52414 layer_factory.hpp:77] Creating layer data
I0418 09:17:08.738103 52414 net.cpp:84] Creating Layer data
I0418 09:17:08.738112 52414 net.cpp:380] data -> data
I0418 09:17:08.738139 52414 net.cpp:380] data -> label
I0418 09:17:08.738152 52414 hdf5_data_layer.cpp:80] Loading list of HDF5 filenames from: train.txt
I0418 09:17:08.738186 52414 hdf5_data_layer.cpp:94] Number of HDF5 files: 1
I0418 09:17:08.739217 52414 hdf5.cpp:32] Datatype class: H5T_FLOAT
I0418 09:17:09.475111 52414 net.cpp:122] Setting up data
I0418 09:17:09.475157 52414 net.cpp:129] Top shape: 64 1 40 40 (102400)
I0418 09:17:09.475163 52414 net.cpp:129] Top shape: 64 1 10 10 (6400)
I0418 09:17:09.475167 52414 net.cpp:137] Memory required for data: 435200
I0418 09:17:09.475175 52414 layer_factory.hpp:77] Creating layer data_data_0_split
I0418 09:17:09.475203 52414 net.cpp:84] Creating Layer data_data_0_split
I0418 09:17:09.475208 52414 net.cpp:406] data_data_0_split <- data
I0418 09:17:09.475235 52414 net.cpp:380] data_data_0_split -> data_data_0_split_0
I0418 09:17:09.475248 52414 net.cpp:380] data_data_0_split -> data_data_0_split_1
I0418 09:17:09.475307 52414 net.cpp:122] Setting up data_data_0_split
I0418 09:17:09.475316 52414 net.cpp:129] Top shape: 64 1 40 40 (102400)
I0418 09:17:09.475319 52414 net.cpp:129] Top shape: 64 1 40 40 (102400)
I0418 09:17:09.475322 52414 net.cpp:137] Memory required for data: 1254400
I0418 09:17:09.475327 52414 layer_factory.hpp:77] Creating layer data_pool1
I0418 09:17:09.475337 52414 net.cpp:84] Creating Layer data_pool1
I0418 09:17:09.475340 52414 net.cpp:406] data_pool1 <- data_data_0_split_0
I0418 09:17:09.475345 52414 net.cpp:380] data_pool1 -> data_pool1
I0418 09:17:09.475392 52414 net.cpp:122] Setting up data_pool1
I0418 09:17:09.475402 52414 net.cpp:129] Top shape: 64 1 20 20 (25600)
I0418 09:17:09.475405 52414 net.cpp:137] Memory required for data: 1356800
I0418 09:17:09.475409 52414 layer_factory.hpp:77] Creating layer data_pool2
I0418 09:17:09.475415 52414 net.cpp:84] Creating Layer data_pool2
I0418 09:17:09.475419 52414 net.cpp:406] data_pool2 <- data_pool1
I0418 09:17:09.475425 52414 net.cpp:380] data_pool2 -> data_pool2
I0418 09:17:09.475452 52414 net.cpp:122] Setting up data_pool2
I0418 09:17:09.475458 52414 net.cpp:129] Top shape: 64 1 10 10 (6400)
I0418 09:17:09.475461 52414 net.cpp:137] Memory required for data: 1382400
I0418 09:17:09.475466 52414 layer_factory.hpp:77] Creating layer conv1
I0418 09:17:09.475483 52414 net.cpp:84] Creating Layer conv1
I0418 09:17:09.475487 52414 net.cpp:406] conv1 <- data_data_0_split_1
I0418 09:17:09.475492 52414 net.cpp:380] conv1 -> conv1
I0418 09:17:09.477116 52414 net.cpp:122] Setting up conv1
I0418 09:17:09.477133 52414 net.cpp:129] Top shape: 64 64 40 40 (6553600)
I0418 09:17:09.477136 52414 net.cpp:137] Memory required for data: 27596800
I0418 09:17:09.477151 52414 layer_factory.hpp:77] Creating layer relu1
I0418 09:17:09.477159 52414 net.cpp:84] Creating Layer relu1
I0418 09:17:09.477164 52414 net.cpp:406] relu1 <- conv1
I0418 09:17:09.477169 52414 net.cpp:367] relu1 -> conv1 (in-place)
I0418 09:17:09.477192 52414 net.cpp:122] Setting up relu1
I0418 09:17:09.477198 52414 net.cpp:129] Top shape: 64 64 40 40 (6553600)
I0418 09:17:09.477201 52414 net.cpp:137] Memory required for data: 53811200
I0418 09:17:09.477205 52414 layer_factory.hpp:77] Creating layer pool1
I0418 09:17:09.477211 52414 net.cpp:84] Creating Layer pool1
I0418 09:17:09.477215 52414 net.cpp:406] pool1 <- conv1
I0418 09:17:09.477219 52414 net.cpp:380] pool1 -> pool1
I0418 09:17:09.477257 52414 net.cpp:122] Setting up pool1
I0418 09:17:09.477262 52414 net.cpp:129] Top shape: 64 64 20 20 (1638400)
I0418 09:17:09.477267 52414 net.cpp:137] Memory required for data: 60364800
I0418 09:17:09.477269 52414 layer_factory.hpp:77] Creating layer conv2
I0418 09:17:09.477279 52414 net.cpp:84] Creating Layer conv2
I0418 09:17:09.477283 52414 net.cpp:406] conv2 <- pool1
I0418 09:17:09.477289 52414 net.cpp:380] conv2 -> conv2
I0418 09:17:09.478950 52414 net.cpp:122] Setting up conv2
I0418 09:17:09.478965 52414 net.cpp:129] Top shape: 64 64 20 20 (1638400)
I0418 09:17:09.478968 52414 net.cpp:137] Memory required for data: 66918400
I0418 09:17:09.478976 52414 layer_factory.hpp:77] Creating layer relu2
I0418 09:17:09.478984 52414 net.cpp:84] Creating Layer relu2
I0418 09:17:09.478988 52414 net.cpp:406] relu2 <- conv2
I0418 09:17:09.478993 52414 net.cpp:367] relu2 -> conv2 (in-place)
I0418 09:17:09.478998 52414 net.cpp:122] Setting up relu2
I0418 09:17:09.479003 52414 net.cpp:129] Top shape: 64 64 20 20 (1638400)
I0418 09:17:09.479007 52414 net.cpp:137] Memory required for data: 73472000
I0418 09:17:09.479020 52414 layer_factory.hpp:77] Creating layer pool2
I0418 09:17:09.479028 52414 net.cpp:84] Creating Layer pool2
I0418 09:17:09.479032 52414 net.cpp:406] pool2 <- conv2
I0418 09:17:09.479037 52414 net.cpp:380] pool2 -> pool2
I0418 09:17:09.479070 52414 net.cpp:122] Setting up pool2
I0418 09:17:09.479077 52414 net.cpp:129] Top shape: 64 64 10 10 (409600)
I0418 09:17:09.479080 52414 net.cpp:137] Memory required for data: 75110400
I0418 09:17:09.479084 52414 layer_factory.hpp:77] Creating layer conv3
I0418 09:17:09.479106 52414 net.cpp:84] Creating Layer conv3
I0418 09:17:09.479111 52414 net.cpp:406] conv3 <- pool2
I0418 09:17:09.479117 52414 net.cpp:380] conv3 -> conv3
I0418 09:17:09.479332 52414 net.cpp:122] Setting up conv3
I0418 09:17:09.479343 52414 net.cpp:129] Top shape: 64 1 10 10 (6400)
I0418 09:17:09.479347 52414 net.cpp:137] Memory required for data: 75136000
I0418 09:17:09.479357 52414 layer_factory.hpp:77] Creating layer relu3
I0418 09:17:09.479363 52414 net.cpp:84] Creating Layer relu3
I0418 09:17:09.479367 52414 net.cpp:406] relu3 <- conv3
I0418 09:17:09.479372 52414 net.cpp:367] relu3 -> conv3 (in-place)
I0418 09:17:09.479377 52414 net.cpp:122] Setting up relu3
I0418 09:17:09.479382 52414 net.cpp:129] Top shape: 64 1 10 10 (6400)
I0418 09:17:09.479385 52414 net.cpp:137] Memory required for data: 75161600
I0418 09:17:09.479400 52414 layer_factory.hpp:77] Creating layer sum
I0418 09:17:09.479408 52414 net.cpp:84] Creating Layer sum
I0418 09:17:09.479411 52414 net.cpp:406] sum <- data_pool2
I0418 09:17:09.479416 52414 net.cpp:406] sum <- conv3
I0418 09:17:09.479420 52414 net.cpp:380] sum -> sum
I0418 09:17:09.479451 52414 net.cpp:122] Setting up sum
I0418 09:17:09.479457 52414 net.cpp:129] Top shape: 64 1 10 10 (6400)
I0418 09:17:09.479460 52414 net.cpp:137] Memory required for data: 75187200
I0418 09:17:09.479465 52414 layer_factory.hpp:77] Creating layer loss
I0418 09:17:09.479475 52414 net.cpp:84] Creating Layer loss
I0418 09:17:09.479477 52414 net.cpp:406] loss <- sum
I0418 09:17:09.479481 52414 net.cpp:406] loss <- label
I0418 09:17:09.479487 52414 net.cpp:380] loss -> loss
I0418 09:17:09.479521 52414 net.cpp:122] Setting up loss
…
I0418 09:17:09.479609 52414 net.cpp:255] Network initialization done.
I0418 09:17:09.479955 52414 solver.cpp:172] Creating test net (#0) specified by net file: VDSR_net.prototxt
I0418 09:17:09.479991 52414 net.cpp:294] The NetState phase (1) differed from the phase (0) specified by a rule in layer data
I0418 09:17:09.480084 52414 net.cpp:51] Initializing net from parameters: 
name: "VDSR"
state {
  phase: TEST
}
layer {
  name: "data"
  type: "HDF5Data"
  top: "data"
  top: "label"
  include {
    phase: TEST
  }
  hdf5_data_param {
    source: "test.txt"
    batch_size: 2
  }
}
layer {
  name: "data_pool1"
  type: "Pooling"
  bottom: "data"
  top: "data_pool1"
  pooling_param {
    pool: MAX
    kernel_size: 2
    stride: 2
  }
}
layer {
  name: "data_pool2"
  type: "Pooling"
  bottom: "data_pool1"
  top: "data_pool2"
  pooling_param {
    pool: MAX
    kernel_size: 2
    stride: 2
  }
}
layer {
  name: "conv1"
  type: "Convolution"
  bottom: "data"
  top: "conv1"
  param {
    lr_mult: 1
  }
  param {
    lr_mult: 0.1
  }
  convolution_param {
    num_output: 64
    pad: 1
    kernel_size: 3
    stride: 1
    weight_filler {
      type: "msra"
    }
    bias_filler {
      type: "constant"
    }
  }
}
layer {
  name: "relu1"
  type: "ReLU"
  bottom: "conv1"
  top: "conv1"
}
layer {
  name: "pool1"
  type: "Pooling"
  bottom: "conv1"
  top: "pool1"
  pooling_param {
    pool: MAX
    kernel_size: 2
    stride: 2
  }
}
layer {
  name: "conv2"
  type: "Convolution"
  bottom: "pool1"
  top: "conv2"
  param {
    lr_mult: 1
  }
  param {
    lr_mult: 0.1
  }
  convolution_param {
    num_output: 64
    pad: 1
    kernel_size: 3
    stride: 1
    weight_filler {
      type: "msra"
    }
    bias_filler {
      type: "constant"
    }
  }
}
layer {
  name: "relu2"
  type: "ReLU"
  bottom: "conv2"
  top: "conv2"
}
layer {
  name: "pool2"
  type: "Pooling"
  bottom: "conv2"
  top: "pool2"
  pooling_param {
    pool: MAX
    kernel_size: 2
    stride: 2
  }
}
layer {
  name: "conv3"
  type: "Convolution"
  bottom: "pool2"
  top: "conv3"
  param {
    lr_mult: 1
  }
  param {
    lr_mult: 0.1
  }
  convolution_param {
    num_output: 1
    pad: 1
    kernel_size: 3
    stride: 1
    weight_filler {
      type: "msra"
    }
    bias_filler {
      type: "constant"
    }
  }
}
layer {
  name: "relu3"
  type: "ReLU"
  bottom: "conv3"
  top: "conv3"
}
layer {
  name: "sum"
  type: "Eltwise"
  bottom: "data_pool2"
  bottom: "conv3"
  top: "sum"
  eltwise_param {
    operation: SUM
  }
}
layer {
  name: "loss"
  type: "EuclideanLoss"
  bottom: "sum"
  bottom: "label"
  top: "loss"
}
I0418 09:17:09.480187 52414 layer_factory.hpp:77] Creating layer data
I0418 09:17:09.480197 52414 net.cpp:84] Creating Layer data
I0418 09:17:09.480202 52414 net.cpp:380] data -> data
I0418 09:17:09.480209 52414 net.cpp:380] data -> label
I0418 09:17:09.480216 52414 hdf5_data_layer.cpp:80] Loading list of HDF5 filenames from: test.txt
I0418 09:17:09.480235 52414 hdf5_data_layer.cpp:94] Number of HDF5 files: 1
I0418 09:17:09.681471 52414 net.cpp:122] Setting up data
I0418 09:17:09.681527 52414 net.cpp:129] Top shape: 2 1 40 40 (3200)
I0418 09:17:09.681535 52414 net.cpp:129] Top shape: 2 1 10 10 (200)
I0418 09:17:09.681538 52414 net.cpp:137] Memory required for data: 13600
I0418 09:17:09.681545 52414 layer_factory.hpp:77] Creating layer data_data_0_split
I0418 09:17:09.681581 52414 net.cpp:84] Creating Layer data_data_0_split
I0418 09:17:09.681597 52414 net.cpp:406] data_data_0_split <- data
I0418 09:17:09.681607 52414 net.cpp:380] data_data_0_split -> data_data_0_split_0
I0418 09:17:09.681618 52414 net.cpp:380] data_data_0_split -> data_data_0_split_1
I0418 09:17:09.681650 52414 net.cpp:122] Setting up data_data_0_split
I0418 09:17:09.681658 52414 net.cpp:129] Top shape: 2 1 40 40 (3200)
I0418 09:17:09.681663 52414 net.cpp:129] Top shape: 2 1 40 40 (3200)
I0418 09:17:09.681665 52414 net.cpp:137] Memory required for data: 39200
I0418 09:17:09.681668 52414 layer_factory.hpp:77] Creating layer data_pool1
I0418 09:17:09.681679 52414 net.cpp:84] Creating Layer data_pool1
I0418 09:17:09.681684 52414 net.cpp:406] data_pool1 <- data_data_0_split_0
I0418 09:17:09.681689 52414 net.cpp:380] data_pool1 -> data_pool1
I0418 09:17:09.681718 52414 net.cpp:122] Setting up data_pool1
I0418 09:17:09.681725 52414 net.cpp:129] Top shape: 2 1 20 20 (800)
I0418 09:17:09.681728 52414 net.cpp:137] Memory required for data: 42400
I0418 09:17:09.681731 52414 layer_factory.hpp:77] Creating layer data_pool2
I0418 09:17:09.681736 52414 net.cpp:84] Creating Layer data_pool2
I0418 09:17:09.681740 52414 net.cpp:406] data_pool2 <- data_pool1
I0418 09:17:09.681746 52414 net.cpp:380] data_pool2 -> data_pool2
I0418 09:17:09.681771 52414 net.cpp:122] Setting up data_pool2
I0418 09:17:09.681777 52414 net.cpp:129] Top shape: 2 1 10 10 (200)
I0418 09:17:09.681779 52414 net.cpp:137] Memory required for data: 43200
I0418 09:17:09.681782 52414 layer_factory.hpp:77] Creating layer conv1
I0418 09:17:09.681797 52414 net.cpp:84] Creating Layer conv1
I0418 09:17:09.681802 52414 net.cpp:406] conv1 <- data_data_0_split_1
I0418 09:17:09.681833 52414 net.cpp:380] conv1 -> conv1
I0418 09:17:09.682080 52414 net.cpp:122] Setting up conv1
I0418 09:17:09.682091 52414 net.cpp:129] Top shape: 2 64 40 40 (204800)
I0418 09:17:09.682096 52414 net.cpp:137] Memory required for data: 862400
I0418 09:17:09.682106 52414 layer_factory.hpp:77] Creating layer relu1
I0418 09:17:09.682114 52414 net.cpp:84] Creating Layer relu1
I0418 09:17:09.682118 52414 net.cpp:406] relu1 <- conv1
I0418 09:17:09.682123 52414 net.cpp:367] relu1 -> conv1 (in-place)
I0418 09:17:09.682130 52414 net.cpp:122] Setting up relu1
I0418 09:17:09.682134 52414 net.cpp:129] Top shape: 2 64 40 40 (204800)
I0418 09:17:09.682137 52414 net.cpp:137] Memory required for data: 1681600
I0418 09:17:09.682140 52414 layer_factory.hpp:77] Creating layer pool1
I0418 09:17:09.682147 52414 net.cpp:84] Creating Layer pool1
I0418 09:17:09.682149 52414 net.cpp:406] pool1 <- conv1
I0418 09:17:09.682154 52414 net.cpp:380] pool1 -> pool1
I0418 09:17:09.682186 52414 net.cpp:122] Setting up pool1
I0418 09:17:09.682193 52414 net.cpp:129] Top shape: 2 64 20 20 (51200)
I0418 09:17:09.682196 52414 net.cpp:137] Memory required for data: 1886400
I0418 09:17:09.682199 52414 layer_factory.hpp:77] Creating layer conv2
I0418 09:17:09.682209 52414 net.cpp:84] Creating Layer conv2
I0418 09:17:09.682212 52414 net.cpp:406] conv2 <- pool1
I0418 09:17:09.682219 52414 net.cpp:380] conv2 -> conv2
I0418 09:17:09.683421 52414 net.cpp:122] Setting up conv2
I0418 09:17:09.683432 52414 net.cpp:129] Top shape: 2 64 20 20 (51200)
I0418 09:17:09.683435 52414 net.cpp:137] Memory required for data: 2091200
I0418 09:17:09.683444 52414 layer_factory.hpp:77] Creating layer relu2
I0418 09:17:09.683449 52414 net.cpp:84] Creating Layer relu2
I0418 09:17:09.683454 52414 net.cpp:406] relu2 <- conv2
I0418 09:17:09.683457 52414 net.cpp:367] relu2 -> conv2 (in-place)
I0418 09:17:09.683464 52414 net.cpp:122] Setting up relu2
I0418 09:17:09.683467 52414 net.cpp:129] Top shape: 2 64 20 20 (51200)
I0418 09:17:09.683470 52414 net.cpp:137] Memory required for data: 2296000
I0418 09:17:09.683472 52414 layer_factory.hpp:77] Creating layer pool2
I0418 09:17:09.683477 52414 net.cpp:84] Creating Layer pool2
I0418 09:17:09.683492 52414 net.cpp:406] pool2 <- conv2
I0418 09:17:09.683497 52414 net.cpp:380] pool2 -> pool2
I0418 09:17:09.683529 52414 net.cpp:122] Setting up pool2
I0418 09:17:09.683535 52414 net.cpp:129] Top shape: 2 64 10 10 (12800)
I0418 09:17:09.683538 52414 net.cpp:137] Memory required for data: 2347200
I0418 09:17:09.683542 52414 layer_factory.hpp:77] Creating layer conv3
I0418 09:17:09.683550 52414 net.cpp:84] Creating Layer conv3
I0418 09:17:09.683553 52414 net.cpp:406] conv3 <- pool2
I0418 09:17:09.683559 52414 net.cpp:380] conv3 -> conv3
I0418 09:17:09.683763 52414 net.cpp:122] Setting up conv3
I0418 09:17:09.683794 52414 net.cpp:129] Top shape: 2 1 10 10 (200)
I0418 09:17:09.683797 52414 net.cpp:137] Memory required for data: 2348000
I0418 09:17:09.683806 52414 layer_factory.hpp:77] Creating layer relu3
I0418 09:17:09.683812 52414 net.cpp:84] Creating Layer relu3
I0418 09:17:09.683816 52414 net.cpp:406] relu3 <- conv3
I0418 09:17:09.683821 52414 net.cpp:367] relu3 -> conv3 (in-place)
I0418 09:17:09.683827 52414 net.cpp:122] Setting up relu3
I0418 09:17:09.683831 52414 net.cpp:129] Top shape: 2 1 10 10 (200)
I0418 09:17:09.683835 52414 net.cpp:137] Memory required for data: 2348800
I0418 09:17:09.683838 52414 layer_factory.hpp:77] Creating layer sum
I0418 09:17:09.683845 52414 net.cpp:84] Creating Layer sum
I0418 09:17:09.683861 52414 net.cpp:406] sum <- data_pool2
I0418 09:17:09.683866 52414 net.cpp:406] sum <- conv3
I0418 09:17:09.683871 52414 net.cpp:380] sum -> sum
I0418 09:17:09.683909 52414 net.cpp:122] Setting up sum
I0418 09:17:09.683918 52414 net.cpp:129] Top shape: 2 1 10 10 (200)
I0418 09:17:09.683923 52414 net.cpp:137] Memory required for data: 2349600
I0418 09:17:09.683925 52414 layer_factory.hpp:77] Creating layer loss
I0418 09:17:09.683931 52414 net.cpp:84] Creating Layer loss
I0418 09:17:09.683935 52414 net.cpp:406] loss <- sum
I0418 09:17:09.683949 52414 net.cpp:406] loss <- label
I0418 09:17:09.683955 52414 net.cpp:380] loss -> loss
I0418 09:17:09.683989 52414 net.cpp:122] Setting up loss
…
