…
  stage: ""
}
type: "Adam"
I0418 21:20:53.557334 99224 solver.cpp:87] Creating training net from net file: VDSR_net.prototxt
I0418 21:20:53.558362 99224 net.cpp:294] The NetState phase (0) differed from the phase (1) specified by a rule in layer data
I0418 21:20:53.558645 99224 net.cpp:51] Initializing net from parameters: 
name: "VDSR"
state {
  phase: TRAIN
  level: 0
  stage: ""
}
layer {
  name: "data"
  type: "HDF5Data"
  top: "data"
  top: "label"
  include {
    phase: TRAIN
  }
  hdf5_data_param {
    source: "train.txt"
    batch_size: 64
  }
}
layer {
  name: "conv1"
  type: "Convolution"
  bottom: "data"
  top: "conv1"
  param {
    lr_mult: 1
  }
  param {
    lr_mult: 0.1
  }
  convolution_param {
    num_output: 64
    pad: 1
    kernel_size: 3
    stride: 1
    weight_filler {
      type: "msra"
    }
    bias_filler {
      type: "constant"
    }
  }
}
layer {
  name: "relu1"
  type: "ReLU"
  bottom: "conv1"
  top: "conv1"
}
layer {
  name: "conv2"
  type: "Convolution"
  bottom: "conv1"
  top: "conv2"
  param {
    lr_mult: 1
  }
  param {
    lr_mult: 0.1
  }
  convolution_param {
    num_output: 64
    pad: 1
    kernel_size: 3
    stride: 1
    weight_filler {
      type: "msra"
    }
    bias_filler {
      type: "constant"
    }
  }
}
layer {
  name: "relu2"
  type: "ReLU"
  bottom: "conv2"
  top: "conv2"
}
layer {
  name: "conv3"
  type: "Convolution"
  bottom: "conv2"
  top: "conv3"
  param {
    lr_mult: 1
  }
  param {
    lr_mult: 0.1
  }
  convolution_param {
    num_output: 64
    pad: 1
    kernel_size: 3
    stride: 1
    weight_filler {
      type: "msra"
    }
    bias_filler {
      type: "constant"
    }
  }
}
layer {
  name: "relu3"
  type: "ReLU"
  bottom: "conv3"
  top: "conv3"
}
layer {
  name: "conv4"
  type: "Convolution"
  bottom: "conv3"
  top: "conv4"
  param {
    lr_mult: 1
  }
  param {
    lr_mult: 0.1
  }
  convolution_param {
    num_output: 64
    pad: 1
    kernel_size: 3
    stride: 1
    weight_filler {
      type: "msra"
    }
    bias_filler {
      type: "constant"
    }
  }
}
layer {
  name: "relu4"
  type: "ReLU"
  bottom: "conv4"
  top: "conv4"
}
layer {
  name: "conv5"
  type: "Convolution"
  bottom: "conv4"
  top: "conv5"
  param {
    lr_mult: 1
  }
  param {
    lr_mult: 0.1
  }
  convolution_param {
    num_output: 64
    pad: 1
    kernel_size: 3
    stride: 1
    weight_filler {
      type: "msra"
    }
    bias_filler {
      type: "constant"
    }
  }
}
layer {
  name: "relu5"
  type: "ReLU"
  bottom: "conv5"
  top: "conv5"
}
layer {
  name: "conv6"
  type: "Convolution"
  bottom: "conv5"
  top: "conv6"
  param {
    lr_mult: 1
  }
  param {
    lr_mult: 0.1
  }
  convolution_param {
    num_output: 64
    pad: 1
    kernel_size: 3
    stride: 1
    weight_filler {
      type: "msra"
    }
    bias_filler {
      type: "constant"
    }
  }
}
layer {
  name: "relu6"
  type: "ReLU"
  bottom: "conv6"
  top: "conv6"
}
layer {
  name: "conv7"
  type: "Convolution"
  bottom: "conv6"
  top: "conv7"
  param {
    lr_mult: 1
  }
  param {
    lr_mult: 0.1
  }
  convolution_param {
    num_output: 64
    pad: 1
    kernel_size: 3
    stride: 1
    weight_filler {
      type: "msra"
    }
    bias_filler {
      type: "constant"
    }
  }
}
layer {
  name: "relu7"
  type: "ReLU"
  bottom: "conv7"
  top: "conv7"
}
layer {
  name: "conv8"
  type: "Convolution"
  bottom: "conv7"
  top: "conv8"
  param {
    lr_mult: 1
  }
  param {
    lr_mult: 0.1
  }
  convolution_param {
    num_output: 64
    pad: 1
    kernel_size: 3
    stride: 1
    weight_filler {
      type: "msra"
    }
    bias_filler {
      type: "constant"
    }
  }
}
layer {
  name: "relu8"
  type: "ReLU"
  bottom: "conv8"
  top: "conv8"
}
layer {
  name: "conv9"
  type: "Convolution"
  bottom: "conv8"
  top: "conv9"
  param {
    lr_mult: 1
  }
  param {
    lr_mult: 0.1
  }
  convolution_param {
    num_output: 64
    pad: 1
    kernel_size: 3
    stride: 1
    weight_filler {
      type: "msra"
    }
    bias_filler {
      type: "constant"
    }
  }
}
layer {
  name: "relu9"
  type: "ReLU"
  bottom: "conv9"
  top: "conv9"
}
layer {
  name: "conv10"
  type: "Convolution"
  bottom: "conv9"
  top: "conv10"
  param {
    lr_mult: 1
  }
  param {
    lr_mult: 0.1
  }
  convolution_param {
    num_output: 64
    pad: 1
    kernel_size: 3
    stride: 1
    weight_filler {
      type: "msra"
    }
    bias_filler {
      type: "constant"
    }
  }
}
layer {
  name: "relu10"
  type: "ReLU"
  bottom: "conv10"
  top: "conv10"
}
layer {
  name: "conv11"
  type: "Convolution"
  bottom: "conv10"
  top: "conv11"
  param {
    lr_mult: 1
  }
  param {
    lr_mult: 0.1
  }
  convolution_param {
    num_output: 64
    pad: 1
    kernel_size: 3
    stride: 1
    weight_filler {
      type: "msra"
    }
    bias_filler {
      type: "constant"
    }
  }
}
layer {
  name: "relu11"
  type: "ReLU"
  bottom: "conv11"
  top: "conv11"
}
layer {
  name: "conv12"
  type: "Convolution"
  bottom: "conv11"
  top: "conv12"
  param {
    lr_mult: 1
  }
  param {
    lr_mult: 0.1
  }
  convolution_param {
    num_output: 64
    pad: 1
    kernel_size: 3
    stride: 1
    weight_filler {
      type: "msra"
    }
    bias_filler {
      type: "constant"
    }
  }
}
layer {
  name: "relu12"
  type: "ReLU"
  bottom: "conv12"
  top: "conv12"
}
layer {
  name: "conv13"
  type: "Convolution"
  bottom: "conv12"
  top: "conv13"
  param {
    lr_mult: 1
  }
  param {
    lr_mult: 0.1
  }
  convolution_param {
    num_output: 64
    pad: 1
    kernel_size: 3
    stride: 1
    weight_filler {
      type: "msra"
    }
    bias_filler {
      type: "constant"
    }
  }
}
layer {
  name: "relu13"
  type: "ReLU"
  bottom: "conv13"
  top: "conv13"
}
layer {
  name: "conv14"
  type: "Convolution"
  bottom: "conv13"
  top: "conv14"
  param {
    lr_mult: 1
  }
  param {
    lr_mult: 0.1
  }
  convolution_param {
    num_output: 64
    pad: 1
    kernel_size: 3
    stride: 1
    weight_filler {
      type: "msra"
    }
    bias_filler {
      type: "constant"
    }
  }
}
layer {
  name: "relu14"
  type: "ReLU"
  bottom: "conv14"
  top: "conv14"
}
layer {
  name: "conv15"
  type: "Convolution"
  bottom: "conv14"
  top: "conv15"
  param {
    lr_mult: 1
  }
  param {
    lr_mult: 0.1
  }
  convolution_param {
    num_output: 64
    pad: 1
    kernel_size: 3
    stride: 1
    weight_filler {
      type: "msra"
    }
    bias_filler {
      type: "constant"
    }
  }
}
layer {
  name: "relu15"
  type: "ReLU"
  bottom: "conv15"
  top: "conv15"
}
layer {
  name: "conv16"
  type: "Convolution"
  bottom: "conv15"
  top: "conv16"
  param {
    lr_mult: 1
  }
  param {
    lr_mult: 0.1
  }
  convolution_param {
    num_output: 64
    pad: 1
    kernel_size: 3
    stride: 1
    weight_filler {
      type: "msra"
    }
    bias_filler {
      type: "constant"
    }
  }
}
layer {
  name: "relu16"
  type: "ReLU"
  bottom: "conv16"
  top: "conv16"
}
layer {
  name: "conv17"
  type: "Convolution"
  bottom: "conv16"
  top: "conv17"
  param {
    lr_mult: 1
  }
  param {
    lr_mult: 0.1
  }
  convolution_param {
    num_output: 64
    pad: 1
    kernel_size: 3
    stride: 1
    weight_filler {
      type: "msra"
    }
    bias_filler {
      type: "constant"
    }
  }
}
layer {
  name: "relu17"
  type: "ReLU"
  bottom: "conv17"
  top: "conv17"
}
layer {
  name: "conv18"
  type: "Convolution"
  bottom: "conv17"
  top: "conv18"
  param {
    lr_mult: 1
  }
  param {
    lr_mult: 0.1
  }
  convolution_param {
    num_output: 64
    pad: 1
    kernel_size: 3
    stride: 1
    weight_filler {
      type: "msra"
    }
    bias_filler {
      type: "constant"
    }
  }
}
layer {
  name: "relu18"
  type: "ReLU"
  bottom: "conv18"
  top: "conv18"
}
layer {
  name: "conv19"
  type: "Convolution"
  bottom: "conv18"
  top: "conv19"
  param {
    lr_mult: 1
  }
  param {
    lr_mult: 0.1
  }
  convolution_param {
    num_output: 64
    pad: 1
    kernel_size: 3
    stride: 1
    weight_filler {
      type: "msra"
    }
    bias_filler {
      type: "constant"
    }
  }
}
layer {
  name: "relu19"
  type: "ReLU"
  bottom: "conv19"
  top: "conv19"
}
layer {
  name: "conv20"
  type: "Convolution"
  bottom: "conv19"
  top: "conv20"
  param {
    lr_mult: 1
  }
  param {
    lr_mult: 0.1
  }
  convolution_param {
    num_output: 1
    pad: 1
    kernel_size: 3
    stride: 1
    weight_filler {
      type: "msra"
    }
    bias_filler {
      type: "constant"
    }
  }
}
layer {
  name: "sum"
  type: "Eltwise"
  bottom: "data"
  bottom: "conv20"
  top: "sum"
  eltwise_param {
    operation: SUM
  }
}
layer {
  name: "loss"
  type: "EuclideanLoss"
  bottom: "sum"
  bottom: "label"
  top: "loss"
}
I0418 21:20:53.558887 99224 layer_factory.hpp:77] Creating layer data
I0418 21:20:53.558913 99224 net.cpp:84] Creating Layer data
I0418 21:20:53.558921 99224 net.cpp:380] data -> data
I0418 21:20:53.558954 99224 net.cpp:380] data -> label
I0418 21:20:53.558966 99224 hdf5_data_layer.cpp:80] Loading list of HDF5 filenames from: train.txt
I0418 21:20:53.558998 99224 hdf5_data_layer.cpp:94] Number of HDF5 files: 1
I0418 21:20:53.560119 99224 hdf5.cpp:32] Datatype class: H5T_FLOAT
I0418 21:20:53.680802 99224 net.cpp:122] Setting up data
I0418 21:20:53.680855 99224 net.cpp:129] Top shape: 64 1 41 41 (107584)
I0418 21:20:53.680861 99224 net.cpp:129] Top shape: 64 1 41 41 (107584)
I0418 21:20:53.680866 99224 net.cpp:137] Memory required for data: 860672
I0418 21:20:53.680876 99224 layer_factory.hpp:77] Creating layer data_data_0_split
I0418 21:20:53.680907 99224 net.cpp:84] Creating Layer data_data_0_split
I0418 21:20:53.680918 99224 net.cpp:406] data_data_0_split <- data
I0418 21:20:53.680936 99224 net.cpp:380] data_data_0_split -> data_data_0_split_0
I0418 21:20:53.680950 99224 net.cpp:380] data_data_0_split -> data_data_0_split_1
I0418 21:20:53.680989 99224 net.cpp:122] Setting up data_data_0_split
I0418 21:20:53.680995 99224 net.cpp:129] Top shape: 64 1 41 41 (107584)
I0418 21:20:53.681000 99224 net.cpp:129] Top shape: 64 1 41 41 (107584)
I0418 21:20:53.681005 99224 net.cpp:137] Memory required for data: 1721344
I0418 21:20:53.681008 99224 layer_factory.hpp:77] Creating layer conv1
I0418 21:20:53.681031 99224 net.cpp:84] Creating Layer conv1
I0418 21:20:53.681035 99224 net.cpp:406] conv1 <- data_data_0_split_0
I0418 21:20:53.681042 99224 net.cpp:380] conv1 -> conv1
I0418 21:20:53.682974 99224 net.cpp:122] Setting up conv1
I0418 21:20:53.682993 99224 net.cpp:129] Top shape: 64 64 41 41 (6885376)
I0418 21:20:53.682997 99224 net.cpp:137] Memory required for data: 29262848
I0418 21:20:53.683017 99224 layer_factory.hpp:77] Creating layer relu1
I0418 21:20:53.683025 99224 net.cpp:84] Creating Layer relu1
I0418 21:20:53.683029 99224 net.cpp:406] relu1 <- conv1
I0418 21:20:53.683035 99224 net.cpp:367] relu1 -> conv1 (in-place)
I0418 21:20:53.683049 99224 net.cpp:122] Setting up relu1
I0418 21:20:53.683058 99224 net.cpp:129] Top shape: 64 64 41 41 (6885376)
I0418 21:20:53.683061 99224 net.cpp:137] Memory required for data: 56804352
I0418 21:20:53.683064 99224 layer_factory.hpp:77] Creating layer conv2
I0418 21:20:53.683075 99224 net.cpp:84] Creating Layer conv2
I0418 21:20:53.683079 99224 net.cpp:406] conv2 <- conv1
I0418 21:20:53.683084 99224 net.cpp:380] conv2 -> conv2
I0418 21:20:53.685080 99224 net.cpp:122] Setting up conv2
I0418 21:20:53.685096 99224 net.cpp:129] Top shape: 64 64 41 41 (6885376)
I0418 21:20:53.685101 99224 net.cpp:137] Memory required for data: 84345856
I0418 21:20:53.685109 99224 layer_factory.hpp:77] Creating layer relu2
I0418 21:20:53.685117 99224 net.cpp:84] Creating Layer relu2
I0418 21:20:53.685120 99224 net.cpp:406] relu2 <- conv2
I0418 21:20:53.685127 99224 net.cpp:367] relu2 -> conv2 (in-place)
I0418 21:20:53.685133 99224 net.cpp:122] Setting up relu2
I0418 21:20:53.685137 99224 net.cpp:129] Top shape: 64 64 41 41 (6885376)
I0418 21:20:53.685164 99224 net.cpp:137] Memory required for data: 111887360
I0418 21:20:53.685169 99224 layer_factory.hpp:77] Creating layer conv3
I0418 21:20:53.685178 99224 net.cpp:84] Creating Layer conv3
I0418 21:20:53.685183 99224 net.cpp:406] conv3 <- conv2
I0418 21:20:53.685189 99224 net.cpp:380] conv3 -> conv3
I0418 21:20:53.686599 99224 net.cpp:122] Setting up conv3
I0418 21:20:53.686610 99224 net.cpp:129] Top shape: 64 64 41 41 (6885376)
I0418 21:20:53.686614 99224 net.cpp:137] Memory required for data: 139428864
I0418 21:20:53.686622 99224 layer_factory.hpp:77] Creating layer relu3
I0418 21:20:53.686630 99224 net.cpp:84] Creating Layer relu3
I0418 21:20:53.686633 99224 net.cpp:406] relu3 <- conv3
I0418 21:20:53.686640 99224 net.cpp:367] relu3 -> conv3 (in-place)
I0418 21:20:53.686645 99224 net.cpp:122] Setting up relu3
I0418 21:20:53.686650 99224 net.cpp:129] Top shape: 64 64 41 41 (6885376)
I0418 21:20:53.686652 99224 net.cpp:137] Memory required for data: 166970368
I0418 21:20:53.686656 99224 layer_factory.hpp:77] Creating layer conv4
I0418 21:20:53.686666 99224 net.cpp:84] Creating Layer conv4
I0418 21:20:53.686669 99224 net.cpp:406] conv4 <- conv3
I0418 21:20:53.686676 99224 net.cpp:380] conv4 -> conv4
I0418 21:20:53.688091 99224 net.cpp:122] Setting up conv4
I0418 21:20:53.688102 99224 net.cpp:129] Top shape: 64 64 41 41 (6885376)
I0418 21:20:53.688107 99224 net.cpp:137] Memory required for data: 194511872
I0418 21:20:53.688114 99224 layer_factory.hpp:77] Creating layer relu4
I0418 21:20:53.688122 99224 net.cpp:84] Creating Layer relu4
I0418 21:20:53.688125 99224 net.cpp:406] relu4 <- conv4
I0418 21:20:53.688130 99224 net.cpp:367] relu4 -> conv4 (in-place)
I0418 21:20:53.688135 99224 net.cpp:122] Setting up relu4
I0418 21:20:53.688140 99224 net.cpp:129] Top shape: 64 64 41 41 (6885376)
I0418 21:20:53.688144 99224 net.cpp:137] Memory required for data: 222053376
I0418 21:20:53.688148 99224 layer_factory.hpp:77] Creating layer conv5
I0418 21:20:53.688156 99224 net.cpp:84] Creating Layer conv5
I0418 21:20:53.688165 99224 net.cpp:406] conv5 <- conv4
I0418 21:20:53.688171 99224 net.cpp:380] conv5 -> conv5
I0418 21:20:53.689535 99224 net.cpp:122] Setting up conv5
I0418 21:20:53.689545 99224 net.cpp:129] Top shape: 64 64 41 41 (6885376)
I0418 21:20:53.689549 99224 net.cpp:137] Memory required for data: 249594880
I0418 21:20:53.689559 99224 layer_factory.hpp:77] Creating layer relu5
I0418 21:20:53.689565 99224 net.cpp:84] Creating Layer relu5
I0418 21:20:53.689569 99224 net.cpp:406] relu5 <- conv5
I0418 21:20:53.689574 99224 net.cpp:367] relu5 -> conv5 (in-place)
I0418 21:20:53.689580 99224 net.cpp:122] Setting up relu5
I0418 21:20:53.689585 99224 net.cpp:129] Top shape: 64 64 41 41 (6885376)
I0418 21:20:53.689589 99224 net.cpp:137] Memory required for data: 277136384
I0418 21:20:53.689592 99224 layer_factory.hpp:77] Creating layer conv6
I0418 21:20:53.689601 99224 net.cpp:84] Creating Layer conv6
I0418 21:20:53.689604 99224 net.cpp:406] conv6 <- conv5
I0418 21:20:53.689610 99224 net.cpp:380] conv6 -> conv6
I0418 21:20:53.690963 99224 net.cpp:122] Setting up conv6
I0418 21:20:53.690973 99224 net.cpp:129] Top shape: 64 64 41 41 (6885376)
I0418 21:20:53.690976 99224 net.cpp:137] Memory required for data: 304677888
I0418 21:20:53.690981 99224 layer_factory.hpp:77] Creating layer relu6
I0418 21:20:53.690987 99224 net.cpp:84] Creating Layer relu6
I0418 21:20:53.690991 99224 net.cpp:406] relu6 <- conv6
I0418 21:20:53.690995 99224 net.cpp:367] relu6 -> conv6 (in-place)
I0418 21:20:53.691001 99224 net.cpp:122] Setting up relu6
I0418 21:20:53.691006 99224 net.cpp:129] Top shape: 64 64 41 41 (6885376)
I0418 21:20:53.691009 99224 net.cpp:137] Memory required for data: 332219392
I0418 21:20:53.691012 99224 layer_factory.hpp:77] Creating layer conv7
I0418 21:20:53.691021 99224 net.cpp:84] Creating Layer conv7
I0418 21:20:53.691025 99224 net.cpp:406] conv7 <- conv6
I0418 21:20:53.691030 99224 net.cpp:380] conv7 -> conv7
I0418 21:20:53.692452 99224 net.cpp:122] Setting up conv7
I0418 21:20:53.692466 99224 net.cpp:129] Top shape: 64 64 41 41 (6885376)
I0418 21:20:53.692503 99224 net.cpp:137] Memory required for data: 359760896
I0418 21:20:53.692512 99224 layer_factory.hpp:77] Creating layer relu7
I0418 21:20:53.692517 99224 net.cpp:84] Creating Layer relu7
I0418 21:20:53.692522 99224 net.cpp:406] relu7 <- conv7
I0418 21:20:53.692528 99224 net.cpp:367] relu7 -> conv7 (in-place)
I0418 21:20:53.692533 99224 net.cpp:122] Setting up relu7
I0418 21:20:53.692538 99224 net.cpp:129] Top shape: 64 64 41 41 (6885376)
I0418 21:20:53.692540 99224 net.cpp:137] Memory required for data: 387302400
I0418 21:20:53.692543 99224 layer_factory.hpp:77] Creating layer conv8
I0418 21:20:53.692553 99224 net.cpp:84] Creating Layer conv8
I0418 21:20:53.692561 99224 net.cpp:406] conv8 <- conv7
I0418 21:20:53.692567 99224 net.cpp:380] conv8 -> conv8
I0418 21:20:53.693922 99224 net.cpp:122] Setting up conv8
I0418 21:20:53.693931 99224 net.cpp:129] Top shape: 64 64 41 41 (6885376)
I0418 21:20:53.693935 99224 net.cpp:137] Memory required for data: 414843904
I0418 21:20:53.693941 99224 layer_factory.hpp:77] Creating layer relu8
I0418 21:20:53.693948 99224 net.cpp:84] Creating Layer relu8
I0418 21:20:53.693951 99224 net.cpp:406] relu8 <- conv8
I0418 21:20:53.693955 99224 net.cpp:367] relu8 -> conv8 (in-place)
I0418 21:20:53.693961 99224 net.cpp:122] Setting up relu8
I0418 21:20:53.693965 99224 net.cpp:129] Top shape: 64 64 41 41 (6885376)
I0418 21:20:53.693969 99224 net.cpp:137] Memory required for data: 442385408
I0418 21:20:53.693971 99224 layer_factory.hpp:77] Creating layer conv9
I0418 21:20:53.693980 99224 net.cpp:84] Creating Layer conv9
I0418 21:20:53.693984 99224 net.cpp:406] conv9 <- conv8
I0418 21:20:53.693989 99224 net.cpp:380] conv9 -> conv9
I0418 21:20:53.695924 99224 net.cpp:122] Setting up conv9
I0418 21:20:53.695940 99224 net.cpp:129] Top shape: 64 64 41 41 (6885376)
I0418 21:20:53.695943 99224 net.cpp:137] Memory required for data: 469926912
I0418 21:20:53.695953 99224 layer_factory.hpp:77] Creating layer relu9
I0418 21:20:53.695961 99224 net.cpp:84] Creating Layer relu9
I0418 21:20:53.695966 99224 net.cpp:406] relu9 <- conv9
I0418 21:20:53.695971 99224 net.cpp:367] relu9 -> conv9 (in-place)
I0418 21:20:53.695976 99224 net.cpp:122] Setting up relu9
I0418 21:20:53.695981 99224 net.cpp:129] Top shape: 64 64 41 41 (6885376)
I0418 21:20:53.695983 99224 net.cpp:137] Memory required for data: 497468416
I0418 21:20:53.695987 99224 layer_factory.hpp:77] Creating layer conv10
I0418 21:20:53.695996 99224 net.cpp:84] Creating Layer conv10
I0418 21:20:53.696002 99224 net.cpp:406] conv10 <- conv9
I0418 21:20:53.696008 99224 net.cpp:380] conv10 -> conv10
I0418 21:20:53.697455 99224 net.cpp:122] Setting up conv10
I0418 21:20:53.697468 99224 net.cpp:129] Top shape: 64 64 41 41 (6885376)
I0418 21:20:53.697473 99224 net.cpp:137] Memory required for data: 525009920
I0418 21:20:53.697479 99224 layer_factory.hpp:77] Creating layer relu10
I0418 21:20:53.697484 99224 net.cpp:84] Creating Layer relu10
I0418 21:20:53.697489 99224 net.cpp:406] relu10 <- conv10
I0418 21:20:53.697494 99224 net.cpp:367] relu10 -> conv10 (in-place)
I0418 21:20:53.697499 99224 net.cpp:122] Setting up relu10
I0418 21:20:53.697504 99224 net.cpp:129] Top shape: 64 64 41 41 (6885376)
I0418 21:20:53.697506 99224 net.cpp:137] Memory required for data: 552551424
I0418 21:20:53.697510 99224 layer_factory.hpp:77] Creating layer conv11
I0418 21:20:53.697518 99224 net.cpp:84] Creating Layer conv11
I0418 21:20:53.697522 99224 net.cpp:406] conv11 <- conv10
I0418 21:20:53.697527 99224 net.cpp:380] conv11 -> conv11
I0418 21:20:53.698925 99224 net.cpp:122] Setting up conv11
I0418 21:20:53.698937 99224 net.cpp:129] Top shape: 64 64 41 41 (6885376)
I0418 21:20:53.698940 99224 net.cpp:137] Memory required for data: 580092928
I0418 21:20:53.698946 99224 layer_factory.hpp:77] Creating layer relu11
I0418 21:20:53.698952 99224 net.cpp:84] Creating Layer relu11
I0418 21:20:53.698956 99224 net.cpp:406] relu11 <- conv11
I0418 21:20:53.698961 99224 net.cpp:367] relu11 -> conv11 (in-place)
I0418 21:20:53.698967 99224 net.cpp:122] Setting up relu11
I0418 21:20:53.698984 99224 net.cpp:129] Top shape: 64 64 41 41 (6885376)
I0418 21:20:53.698987 99224 net.cpp:137] Memory required for data: 607634432
I0418 21:20:53.698992 99224 layer_factory.hpp:77] Creating layer conv12
I0418 21:20:53.698999 99224 net.cpp:84] Creating Layer conv12
I0418 21:20:53.699003 99224 net.cpp:406] conv12 <- conv11
I0418 21:20:53.699008 99224 net.cpp:380] conv12 -> conv12
I0418 21:20:53.700382 99224 net.cpp:122] Setting up conv12
I0418 21:20:53.700393 99224 net.cpp:129] Top shape: 64 64 41 41 (6885376)
I0418 21:20:53.700397 99224 net.cpp:137] Memory required for data: 635175936
I0418 21:20:53.700404 99224 layer_factory.hpp:77] Creating layer relu12
I0418 21:20:53.700410 99224 net.cpp:84] Creating Layer relu12
I0418 21:20:53.700413 99224 net.cpp:406] relu12 <- conv12
I0418 21:20:53.700419 99224 net.cpp:367] relu12 -> conv12 (in-place)
I0418 21:20:53.700424 99224 net.cpp:122] Setting up relu12
I0418 21:20:53.700428 99224 net.cpp:129] Top shape: 64 64 41 41 (6885376)
I0418 21:20:53.700431 99224 net.cpp:137] Memory required for data: 662717440
I0418 21:20:53.700434 99224 layer_factory.hpp:77] Creating layer conv13
I0418 21:20:53.700443 99224 net.cpp:84] Creating Layer conv13
I0418 21:20:53.700446 99224 net.cpp:406] conv13 <- conv12
I0418 21:20:53.700451 99224 net.cpp:380] conv13 -> conv13
I0418 21:20:53.701758 99224 net.cpp:122] Setting up conv13
I0418 21:20:53.701768 99224 net.cpp:129] Top shape: 64 64 41 41 (6885376)
I0418 21:20:53.701771 99224 net.cpp:137] Memory required for data: 690258944
I0418 21:20:53.701777 99224 layer_factory.hpp:77] Creating layer relu13
I0418 21:20:53.701782 99224 net.cpp:84] Creating Layer relu13
I0418 21:20:53.701786 99224 net.cpp:406] relu13 <- conv13
I0418 21:20:53.701791 99224 net.cpp:367] relu13 -> conv13 (in-place)
I0418 21:20:53.701797 99224 net.cpp:122] Setting up relu13
I0418 21:20:53.701800 99224 net.cpp:129] Top shape: 64 64 41 41 (6885376)
I0418 21:20:53.701803 99224 net.cpp:137] Memory required for data: 717800448
I0418 21:20:53.701807 99224 layer_factory.hpp:77] Creating layer conv14
I0418 21:20:53.701814 99224 net.cpp:84] Creating Layer conv14
I0418 21:20:53.701817 99224 net.cpp:406] conv14 <- conv13
I0418 21:20:53.701823 99224 net.cpp:380] conv14 -> conv14
I0418 21:20:53.703135 99224 net.cpp:122] Setting up conv14
I0418 21:20:53.703145 99224 net.cpp:129] Top shape: 64 64 41 41 (6885376)
I0418 21:20:53.703148 99224 net.cpp:137] Memory required for data: 745341952
I0418 21:20:53.703153 99224 layer_factory.hpp:77] Creating layer relu14
I0418 21:20:53.703158 99224 net.cpp:84] Creating Layer relu14
I0418 21:20:53.703162 99224 net.cpp:406] relu14 <- conv14
I0418 21:20:53.703167 99224 net.cpp:367] relu14 -> conv14 (in-place)
I0418 21:20:53.703172 99224 net.cpp:122] Setting up relu14
I0418 21:20:53.703176 99224 net.cpp:129] Top shape: 64 64 41 41 (6885376)
I0418 21:20:53.703179 99224 net.cpp:137] Memory required for data: 772883456
I0418 21:20:53.703182 99224 layer_factory.hpp:77] Creating layer conv15
I0418 21:20:53.703191 99224 net.cpp:84] Creating Layer conv15
I0418 21:20:53.703193 99224 net.cpp:406] conv15 <- conv14
I0418 21:20:53.703199 99224 net.cpp:380] conv15 -> conv15
I0418 21:20:53.704505 99224 net.cpp:122] Setting up conv15
I0418 21:20:53.704515 99224 net.cpp:129] Top shape: 64 64 41 41 (6885376)
I0418 21:20:53.704519 99224 net.cpp:137] Memory required for data: 800424960
I0418 21:20:53.704524 99224 layer_factory.hpp:77] Creating layer relu15
I0418 21:20:53.704530 99224 net.cpp:84] Creating Layer relu15
I0418 21:20:53.704535 99224 net.cpp:406] relu15 <- conv15
I0418 21:20:53.704540 99224 net.cpp:367] relu15 -> conv15 (in-place)
I0418 21:20:53.704545 99224 net.cpp:122] Setting up relu15
I0418 21:20:53.704548 99224 net.cpp:129] Top shape: 64 64 41 41 (6885376)
I0418 21:20:53.704551 99224 net.cpp:137] Memory required for data: 827966464
I0418 21:20:53.704555 99224 layer_factory.hpp:77] Creating layer conv16
I0418 21:20:53.704566 99224 net.cpp:84] Creating Layer conv16
I0418 21:20:53.704568 99224 net.cpp:406] conv16 <- conv15
I0418 21:20:53.704574 99224 net.cpp:380] conv16 -> conv16
I0418 21:20:53.706432 99224 net.cpp:122] Setting up conv16
I0418 21:20:53.706446 99224 net.cpp:129] Top shape: 64 64 41 41 (6885376)
I0418 21:20:53.706450 99224 net.cpp:137] Memory required for data: 855507968
I0418 21:20:53.706456 99224 layer_factory.hpp:77] Creating layer relu16
I0418 21:20:53.706462 99224 net.cpp:84] Creating Layer relu16
I0418 21:20:53.706466 99224 net.cpp:406] relu16 <- conv16
I0418 21:20:53.706472 99224 net.cpp:367] relu16 -> conv16 (in-place)
I0418 21:20:53.706478 99224 net.cpp:122] Setting up relu16
I0418 21:20:53.706482 99224 net.cpp:129] Top shape: 64 64 41 41 (6885376)
I0418 21:20:53.706485 99224 net.cpp:137] Memory required for data: 883049472
I0418 21:20:53.706488 99224 layer_factory.hpp:77] Creating layer conv17
I0418 21:20:53.706497 99224 net.cpp:84] Creating Layer conv17
I0418 21:20:53.706501 99224 net.cpp:406] conv17 <- conv16
I0418 21:20:53.706506 99224 net.cpp:380] conv17 -> conv17
I0418 21:20:53.707818 99224 net.cpp:122] Setting up conv17
I0418 21:20:53.707828 99224 net.cpp:129] Top shape: 64 64 41 41 (6885376)
I0418 21:20:53.707831 99224 net.cpp:137] Memory required for data: 910590976
I0418 21:20:53.707842 99224 layer_factory.hpp:77] Creating layer relu17
I0418 21:20:53.707849 99224 net.cpp:84] Creating Layer relu17
I0418 21:20:53.707852 99224 net.cpp:406] relu17 <- conv17
I0418 21:20:53.707857 99224 net.cpp:367] relu17 -> conv17 (in-place)
I0418 21:20:53.707864 99224 net.cpp:122] Setting up relu17
I0418 21:20:53.707867 99224 net.cpp:129] Top shape: 64 64 41 41 (6885376)
I0418 21:20:53.707870 99224 net.cpp:137] Memory required for data: 938132480
I0418 21:20:53.707873 99224 layer_factory.hpp:77] Creating layer conv18
I0418 21:20:53.707880 99224 net.cpp:84] Creating Layer conv18
I0418 21:20:53.707885 99224 net.cpp:406] conv18 <- conv17
I0418 21:20:53.707890 99224 net.cpp:380] conv18 -> conv18
I0418 21:20:53.709192 99224 net.cpp:122] Setting up conv18
I0418 21:20:53.709202 99224 net.cpp:129] Top shape: 64 64 41 41 (6885376)
I0418 21:20:53.709204 99224 net.cpp:137] Memory required for data: 965673984
I0418 21:20:53.709210 99224 layer_factory.hpp:77] Creating layer relu18
I0418 21:20:53.709216 99224 net.cpp:84] Creating Layer relu18
I0418 21:20:53.709219 99224 net.cpp:406] relu18 <- conv18
I0418 21:20:53.709224 99224 net.cpp:367] relu18 -> conv18 (in-place)
I0418 21:20:53.709229 99224 net.cpp:122] Setting up relu18
I0418 21:20:53.709233 99224 net.cpp:129] Top shape: 64 64 41 41 (6885376)
I0418 21:20:53.709236 99224 net.cpp:137] Memory required for data: 993215488
I0418 21:20:53.709239 99224 layer_factory.hpp:77] Creating layer conv19
I0418 21:20:53.709249 99224 net.cpp:84] Creating Layer conv19
I0418 21:20:53.709254 99224 net.cpp:406] conv19 <- conv18
I0418 21:20:53.709271 99224 net.cpp:380] conv19 -> conv19
I0418 21:20:53.710600 99224 net.cpp:122] Setting up conv19
I0418 21:20:53.710609 99224 net.cpp:129] Top shape: 64 64 41 41 (6885376)
I0418 21:20:53.710613 99224 net.cpp:137] Memory required for data: 1020756992
I0418 21:20:53.710618 99224 layer_factory.hpp:77] Creating layer relu19
I0418 21:20:53.710624 99224 net.cpp:84] Creating Layer relu19
I0418 21:20:53.710628 99224 net.cpp:406] relu19 <- conv19
I0418 21:20:53.710633 99224 net.cpp:367] relu19 -> conv19 (in-place)
I0418 21:20:53.710638 99224 net.cpp:122] Setting up relu19
I0418 21:20:53.710641 99224 net.cpp:129] Top shape: 64 64 41 41 (6885376)
I0418 21:20:53.710644 99224 net.cpp:137] Memory required for data: 1048298496
I0418 21:20:53.710647 99224 layer_factory.hpp:77] Creating layer conv20
I0418 21:20:53.710656 99224 net.cpp:84] Creating Layer conv20
I0418 21:20:53.710659 99224 net.cpp:406] conv20 <- conv19
I0418 21:20:53.710665 99224 net.cpp:380] conv20 -> conv20
I0418 21:20:53.710865 99224 net.cpp:122] Setting up conv20
I0418 21:20:53.710875 99224 net.cpp:129] Top shape: 64 1 41 41 (107584)
I0418 21:20:53.710877 99224 net.cpp:137] Memory required for data: 1048728832
I0418 21:20:53.710882 99224 layer_factory.hpp:77] Creating layer sum
I0418 21:20:53.710891 99224 net.cpp:84] Creating Layer sum
I0418 21:20:53.710907 99224 net.cpp:406] sum <- data_data_0_split_1
I0418 21:20:53.710913 99224 net.cpp:406] sum <- conv20
I0418 21:20:53.710918 99224 net.cpp:380] sum -> sum
I0418 21:20:53.710964 99224 net.cpp:122] Setting up sum
I0418 21:20:53.710971 99224 net.cpp:129] Top shape: 64 1 41 41 (107584)
I0418 21:20:53.710974 99224 net.cpp:137] Memory required for data: 1049159168
I0418 21:20:53.710978 99224 layer_factory.hpp:77] Creating layer loss
I0418 21:20:53.711002 99224 net.cpp:84] Creating Layer loss
I0418 21:20:53.711009 99224 net.cpp:406] loss <- sum
I0418 21:20:53.711014 99224 net.cpp:406] loss <- label
I0418 21:20:53.711020 99224 net.cpp:380] loss -> loss
I0418 21:20:53.711056 99224 net.cpp:122] Setting up loss
…
I0418 21:20:53.711284 99224 net.cpp:255] Network initialization done.
I0418 21:20:53.712179 99224 solver.cpp:172] Creating test net (#0) specified by net file: VDSR_net.prototxt
I0418 21:20:53.712319 99224 net.cpp:294] The NetState phase (1) differed from the phase (0) specified by a rule in layer data
I0418 21:20:53.712561 99224 net.cpp:51] Initializing net from parameters: 
name: "VDSR"
state {
  phase: TEST
}
layer {
  name: "data"
  type: "HDF5Data"
  top: "data"
  top: "label"
  include {
    phase: TEST
  }
  hdf5_data_param {
    source: "test.txt"
    batch_size: 2
  }
}
layer {
  name: "conv1"
  type: "Convolution"
  bottom: "data"
  top: "conv1"
  param {
    lr_mult: 1
  }
  param {
    lr_mult: 0.1
  }
  convolution_param {
    num_output: 64
    pad: 1
    kernel_size: 3
    stride: 1
    weight_filler {
      type: "msra"
    }
    bias_filler {
      type: "constant"
    }
  }
}
layer {
  name: "relu1"
  type: "ReLU"
  bottom: "conv1"
  top: "conv1"
}
layer {
  name: "conv2"
  type: "Convolution"
  bottom: "conv1"
  top: "conv2"
  param {
    lr_mult: 1
  }
  param {
    lr_mult: 0.1
  }
  convolution_param {
    num_output: 64
    pad: 1
    kernel_size: 3
    stride: 1
    weight_filler {
      type: "msra"
    }
    bias_filler {
      type: "constant"
    }
  }
}
layer {
  name: "relu2"
  type: "ReLU"
  bottom: "conv2"
  top: "conv2"
}
layer {
  name: "conv3"
  type: "Convolution"
  bottom: "conv2"
  top: "conv3"
  param {
    lr_mult: 1
  }
  param {
    lr_mult: 0.1
  }
  convolution_param {
    num_output: 64
    pad: 1
    kernel_size: 3
    stride: 1
    weight_filler {
      type: "msra"
    }
    bias_filler {
      type: "constant"
    }
  }
}
layer {
  name: "relu3"
  type: "ReLU"
  bottom: "conv3"
  top: "conv3"
}
layer {
  name: "conv4"
  type: "Convolution"
  bottom: "conv3"
  top: "conv4"
  param {
    lr_mult: 1
  }
  param {
    lr_mult: 0.1
  }
  convolution_param {
    num_output: 64
    pad: 1
    kernel_size: 3
    stride: 1
    weight_filler {
      type: "msra"
    }
    bias_filler {
      type: "constant"
    }
  }
}
layer {
  name: "relu4"
  type: "ReLU"
  bottom: "conv4"
  top: "conv4"
}
layer {
  name: "conv5"
  type: "Convolution"
  bottom: "conv4"
  top: "conv5"
  param {
    lr_mult: 1
  }
  param {
    lr_mult: 0.1
  }
  convolution_param {
    num_output: 64
    pad: 1
    kernel_size: 3
    stride: 1
    weight_filler {
      type: "msra"
    }
    bias_filler {
      type: "constant"
    }
  }
}
layer {
  name: "relu5"
  type: "ReLU"
  bottom: "conv5"
  top: "conv5"
}
layer {
  name: "conv6"
  type: "Convolution"
  bottom: "conv5"
  top: "conv6"
  param {
    lr_mult: 1
  }
  param {
    lr_mult: 0.1
  }
  convolution_param {
    num_output: 64
    pad: 1
    kernel_size: 3
    stride: 1
    weight_filler {
      type: "msra"
    }
    bias_filler {
      type: "constant"
    }
  }
}
layer {
  name: "relu6"
  type: "ReLU"
  bottom: "conv6"
  top: "conv6"
}
layer {
  name: "conv7"
  type: "Convolution"
  bottom: "conv6"
  top: "conv7"
  param {
    lr_mult: 1
  }
  param {
    lr_mult: 0.1
  }
  convolution_param {
    num_output: 64
    pad: 1
    kernel_size: 3
    stride: 1
    weight_filler {
      type: "msra"
    }
    bias_filler {
      type: "constant"
    }
  }
}
layer {
  name: "relu7"
  type: "ReLU"
  bottom: "conv7"
  top: "conv7"
}
layer {
  name: "conv8"
  type: "Convolution"
  bottom: "conv7"
  top: "conv8"
  param {
    lr_mult: 1
  }
  param {
    lr_mult: 0.1
  }
  convolution_param {
    num_output: 64
    pad: 1
    kernel_size: 3
    stride: 1
    weight_filler {
      type: "msra"
    }
    bias_filler {
      type: "constant"
    }
  }
}
layer {
  name: "relu8"
  type: "ReLU"
  bottom: "conv8"
  top: "conv8"
}
layer {
  name: "conv9"
  type: "Convolution"
  bottom: "conv8"
  top: "conv9"
  param {
    lr_mult: 1
  }
  param {
    lr_mult: 0.1
  }
  convolution_param {
    num_output: 64
    pad: 1
    kernel_size: 3
    stride: 1
    weight_filler {
      type: "msra"
    }
    bias_filler {
      type: "constant"
    }
  }
}
layer {
  name: "relu9"
  type: "ReLU"
  bottom: "conv9"
  top: "conv9"
}
layer {
  name: "conv10"
  type: "Convolution"
  bottom: "conv9"
  top: "conv10"
  param {
    lr_mult: 1
  }
  param {
    lr_mult: 0.1
  }
  convolution_param {
    num_output: 64
    pad: 1
    kernel_size: 3
    stride: 1
    weight_filler {
      type: "msra"
    }
    bias_filler {
      type: "constant"
    }
  }
}
layer {
  name: "relu10"
  type: "ReLU"
  bottom: "conv10"
  top: "conv10"
}
layer {
  name: "conv11"
  type: "Convolution"
  bottom: "conv10"
  top: "conv11"
  param {
    lr_mult: 1
  }
  param {
    lr_mult: 0.1
  }
  convolution_param {
    num_output: 64
    pad: 1
    kernel_size: 3
    stride: 1
    weight_filler {
      type: "msra"
    }
    bias_filler {
      type: "constant"
    }
  }
}
layer {
  name: "relu11"
  type: "ReLU"
  bottom: "conv11"
  top: "conv11"
}
layer {
  name: "conv12"
  type: "Convolution"
  bottom: "conv11"
  top: "conv12"
  param {
    lr_mult: 1
  }
  param {
    lr_mult: 0.1
  }
  convolution_param {
    num_output: 64
    pad: 1
    kernel_size: 3
    stride: 1
    weight_filler {
      type: "msra"
    }
    bias_filler {
      type: "constant"
    }
  }
}
layer {
  name: "relu12"
  type: "ReLU"
  bottom: "conv12"
  top: "conv12"
}
layer {
  name: "conv13"
  type: "Convolution"
  bottom: "conv12"
  top: "conv13"
  param {
    lr_mult: 1
  }
  param {
    lr_mult: 0.1
  }
  convolution_param {
    num_output: 64
    pad: 1
    kernel_size: 3
    stride: 1
    weight_filler {
      type: "msra"
    }
    bias_filler {
      type: "constant"
    }
  }
}
layer {
  name: "relu13"
  type: "ReLU"
  bottom: "conv13"
  top: "conv13"
}
layer {
  name: "conv14"
  type: "Convolution"
  bottom: "conv13"
  top: "conv14"
  param {
    lr_mult: 1
  }
  param {
    lr_mult: 0.1
  }
  convolution_param {
    num_output: 64
    pad: 1
    kernel_size: 3
    stride: 1
    weight_filler {
      type: "msra"
    }
    bias_filler {
      type: "constant"
    }
  }
}
layer {
  name: "relu14"
  type: "ReLU"
  bottom: "conv14"
  top: "conv14"
}
layer {
  name: "conv15"
  type: "Convolution"
  bottom: "conv14"
  top: "conv15"
  param {
    lr_mult: 1
  }
  param {
    lr_mult: 0.1
  }
  convolution_param {
    num_output: 64
    pad: 1
    kernel_size: 3
    stride: 1
    weight_filler {
      type: "msra"
    }
    bias_filler {
      type: "constant"
    }
  }
}
layer {
  name: "relu15"
  type: "ReLU"
  bottom: "conv15"
  top: "conv15"
}
layer {
  name: "conv16"
  type: "Convolution"
  bottom: "conv15"
  top: "conv16"
  param {
    lr_mult: 1
  }
  param {
    lr_mult: 0.1
  }
  convolution_param {
    num_output: 64
    pad: 1
    kernel_size: 3
    stride: 1
    weight_filler {
      type: "msra"
    }
    bias_filler {
      type: "constant"
    }
  }
}
layer {
  name: "relu16"
  type: "ReLU"
  bottom: "conv16"
  top: "conv16"
}
layer {
  name: "conv17"
  type: "Convolution"
  bottom: "conv16"
  top: "conv17"
  param {
    lr_mult: 1
  }
  param {
    lr_mult: 0.1
  }
  convolution_param {
    num_output: 64
    pad: 1
    kernel_size: 3
    stride: 1
    weight_filler {
      type: "msra"
    }
    bias_filler {
      type: "constant"
    }
  }
}
layer {
  name: "relu17"
  type: "ReLU"
  bottom: "conv17"
  top: "conv17"
}
layer {
  name: "conv18"
  type: "Convolution"
  bottom: "conv17"
  top: "conv18"
  param {
    lr_mult: 1
  }
  param {
    lr_mult: 0.1
  }
  convolution_param {
    num_output: 64
    pad: 1
    kernel_size: 3
    stride: 1
    weight_filler {
      type: "msra"
    }
    bias_filler {
      type: "constant"
    }
  }
}
layer {
  name: "relu18"
  type: "ReLU"
  bottom: "conv18"
  top: "conv18"
}
layer {
  name: "conv19"
  type: "Convolution"
  bottom: "conv18"
  top: "conv19"
  param {
    lr_mult: 1
  }
  param {
    lr_mult: 0.1
  }
  convolution_param {
    num_output: 64
    pad: 1
    kernel_size: 3
    stride: 1
    weight_filler {
      type: "msra"
    }
    bias_filler {
      type: "constant"
    }
  }
}
layer {
  name: "relu19"
  type: "ReLU"
  bottom: "conv19"
  top: "conv19"
}
layer {
  name: "conv20"
  type: "Convolution"
  bottom: "conv19"
  top: "conv20"
  param {
    lr_mult: 1
  }
  param {
    lr_mult: 0.1
  }
  convolution_param {
    num_output: 1
    pad: 1
    kernel_size: 3
    stride: 1
    weight_filler {
      type: "msra"
    }
    bias_filler {
      type: "constant"
    }
  }
}
layer {
  name: "sum"
  type: "Eltwise"
  bottom: "data"
  bottom: "conv20"
  top: "sum"
  eltwise_param {
    operation: SUM
  }
}
layer {
  name: "loss"
  type: "EuclideanLoss"
  bottom: "sum"
  bottom: "label"
  top: "loss"
}
I0418 21:20:53.712723 99224 layer_factory.hpp:77] Creating layer data
I0418 21:20:53.712733 99224 net.cpp:84] Creating Layer data
I0418 21:20:53.712738 99224 net.cpp:380] data -> data
I0418 21:20:53.712745 99224 net.cpp:380] data -> label
I0418 21:20:53.712751 99224 hdf5_data_layer.cpp:80] Loading list of HDF5 filenames from: test.txt
I0418 21:20:53.712772 99224 hdf5_data_layer.cpp:94] Number of HDF5 files: 1
I0418 21:20:53.731070 99224 net.cpp:122] Setting up data
I0418 21:20:53.731115 99224 net.cpp:129] Top shape: 2 1 41 41 (3362)
I0418 21:20:53.731122 99224 net.cpp:129] Top shape: 2 1 41 41 (3362)
I0418 21:20:53.731125 99224 net.cpp:137] Memory required for data: 26896
I0418 21:20:53.731133 99224 layer_factory.hpp:77] Creating layer data_data_0_split
I0418 21:20:53.731150 99224 net.cpp:84] Creating Layer data_data_0_split
I0418 21:20:53.731156 99224 net.cpp:406] data_data_0_split <- data
I0418 21:20:53.731164 99224 net.cpp:380] data_data_0_split -> data_data_0_split_0
I0418 21:20:53.731175 99224 net.cpp:380] data_data_0_split -> data_data_0_split_1
I0418 21:20:53.731206 99224 net.cpp:122] Setting up data_data_0_split
I0418 21:20:53.731215 99224 net.cpp:129] Top shape: 2 1 41 41 (3362)
I0418 21:20:53.731218 99224 net.cpp:129] Top shape: 2 1 41 41 (3362)
I0418 21:20:53.731221 99224 net.cpp:137] Memory required for data: 53792
I0418 21:20:53.731225 99224 layer_factory.hpp:77] Creating layer conv1
I0418 21:20:53.731240 99224 net.cpp:84] Creating Layer conv1
I0418 21:20:53.731245 99224 net.cpp:406] conv1 <- data_data_0_split_0
I0418 21:20:53.731251 99224 net.cpp:380] conv1 -> conv1
I0418 21:20:53.731500 99224 net.cpp:122] Setting up conv1
I0418 21:20:53.731510 99224 net.cpp:129] Top shape: 2 64 41 41 (215168)
I0418 21:20:53.731513 99224 net.cpp:137] Memory required for data: 914464
I0418 21:20:53.731524 99224 layer_factory.hpp:77] Creating layer relu1
I0418 21:20:53.731534 99224 net.cpp:84] Creating Layer relu1
I0418 21:20:53.731536 99224 net.cpp:406] relu1 <- conv1
I0418 21:20:53.731541 99224 net.cpp:367] relu1 -> conv1 (in-place)
I0418 21:20:53.731547 99224 net.cpp:122] Setting up relu1
I0418 21:20:53.731551 99224 net.cpp:129] Top shape: 2 64 41 41 (215168)
I0418 21:20:53.731554 99224 net.cpp:137] Memory required for data: 1775136
I0418 21:20:53.731557 99224 layer_factory.hpp:77] Creating layer conv2
I0418 21:20:53.731568 99224 net.cpp:84] Creating Layer conv2
I0418 21:20:53.731571 99224 net.cpp:406] conv2 <- conv1
I0418 21:20:53.731577 99224 net.cpp:380] conv2 -> conv2
I0418 21:20:53.732904 99224 net.cpp:122] Setting up conv2
I0418 21:20:53.732914 99224 net.cpp:129] Top shape: 2 64 41 41 (215168)
I0418 21:20:53.732918 99224 net.cpp:137] Memory required for data: 2635808
I0418 21:20:53.732925 99224 layer_factory.hpp:77] Creating layer relu2
I0418 21:20:53.732931 99224 net.cpp:84] Creating Layer relu2
I0418 21:20:53.732934 99224 net.cpp:406] relu2 <- conv2
I0418 21:20:53.732939 99224 net.cpp:367] relu2 -> conv2 (in-place)
I0418 21:20:53.732944 99224 net.cpp:122] Setting up relu2
I0418 21:20:53.732949 99224 net.cpp:129] Top shape: 2 64 41 41 (215168)
I0418 21:20:53.732951 99224 net.cpp:137] Memory required for data: 3496480
I0418 21:20:53.732954 99224 layer_factory.hpp:77] Creating layer conv3
I0418 21:20:53.732962 99224 net.cpp:84] Creating Layer conv3
I0418 21:20:53.732965 99224 net.cpp:406] conv3 <- conv2
I0418 21:20:53.732970 99224 net.cpp:380] conv3 -> conv3
I0418 21:20:53.734268 99224 net.cpp:122] Setting up conv3
I0418 21:20:53.734278 99224 net.cpp:129] Top shape: 2 64 41 41 (215168)
I0418 21:20:53.734282 99224 net.cpp:137] Memory required for data: 4357152
I0418 21:20:53.734289 99224 layer_factory.hpp:77] Creating layer relu3
I0418 21:20:53.734294 99224 net.cpp:84] Creating Layer relu3
I0418 21:20:53.734297 99224 net.cpp:406] relu3 <- conv3
I0418 21:20:53.734302 99224 net.cpp:367] relu3 -> conv3 (in-place)
I0418 21:20:53.734308 99224 net.cpp:122] Setting up relu3
I0418 21:20:53.734313 99224 net.cpp:129] Top shape: 2 64 41 41 (215168)
I0418 21:20:53.734315 99224 net.cpp:137] Memory required for data: 5217824
I0418 21:20:53.734318 99224 layer_factory.hpp:77] Creating layer conv4
I0418 21:20:53.734326 99224 net.cpp:84] Creating Layer conv4
I0418 21:20:53.734330 99224 net.cpp:406] conv4 <- conv3
I0418 21:20:53.734335 99224 net.cpp:380] conv4 -> conv4
I0418 21:20:53.735610 99224 net.cpp:122] Setting up conv4
I0418 21:20:53.735617 99224 net.cpp:129] Top shape: 2 64 41 41 (215168)
I0418 21:20:53.735620 99224 net.cpp:137] Memory required for data: 6078496
I0418 21:20:53.735626 99224 layer_factory.hpp:77] Creating layer relu4
I0418 21:20:53.735631 99224 net.cpp:84] Creating Layer relu4
I0418 21:20:53.735635 99224 net.cpp:406] relu4 <- conv4
I0418 21:20:53.735638 99224 net.cpp:367] relu4 -> conv4 (in-place)
I0418 21:20:53.735643 99224 net.cpp:122] Setting up relu4
I0418 21:20:53.735647 99224 net.cpp:129] Top shape: 2 64 41 41 (215168)
I0418 21:20:53.735651 99224 net.cpp:137] Memory required for data: 6939168
I0418 21:20:53.735653 99224 layer_factory.hpp:77] Creating layer conv5
I0418 21:20:53.735661 99224 net.cpp:84] Creating Layer conv5
I0418 21:20:53.735664 99224 net.cpp:406] conv5 <- conv4
I0418 21:20:53.735669 99224 net.cpp:380] conv5 -> conv5
I0418 21:20:53.737555 99224 net.cpp:122] Setting up conv5
I0418 21:20:53.737568 99224 net.cpp:129] Top shape: 2 64 41 41 (215168)
I0418 21:20:53.737572 99224 net.cpp:137] Memory required for data: 7799840
I0418 21:20:53.737581 99224 layer_factory.hpp:77] Creating layer relu5
I0418 21:20:53.737586 99224 net.cpp:84] Creating Layer relu5
I0418 21:20:53.737589 99224 net.cpp:406] relu5 <- conv5
I0418 21:20:53.737594 99224 net.cpp:367] relu5 -> conv5 (in-place)
I0418 21:20:53.737599 99224 net.cpp:122] Setting up relu5
I0418 21:20:53.737603 99224 net.cpp:129] Top shape: 2 64 41 41 (215168)
I0418 21:20:53.737607 99224 net.cpp:137] Memory required for data: 8660512
I0418 21:20:53.737609 99224 layer_factory.hpp:77] Creating layer conv6
I0418 21:20:53.737617 99224 net.cpp:84] Creating Layer conv6
I0418 21:20:53.737620 99224 net.cpp:406] conv6 <- conv5
I0418 21:20:53.737625 99224 net.cpp:380] conv6 -> conv6
I0418 21:20:53.738843 99224 net.cpp:122] Setting up conv6
I0418 21:20:53.738852 99224 net.cpp:129] Top shape: 2 64 41 41 (215168)
I0418 21:20:53.738855 99224 net.cpp:137] Memory required for data: 9521184
I0418 21:20:53.738860 99224 layer_factory.hpp:77] Creating layer relu6
I0418 21:20:53.738865 99224 net.cpp:84] Creating Layer relu6
I0418 21:20:53.738868 99224 net.cpp:406] relu6 <- conv6
I0418 21:20:53.738873 99224 net.cpp:367] relu6 -> conv6 (in-place)
I0418 21:20:53.738878 99224 net.cpp:122] Setting up relu6
I0418 21:20:53.738881 99224 net.cpp:129] Top shape: 2 64 41 41 (215168)
I0418 21:20:53.738883 99224 net.cpp:137] Memory required for data: 10381856
I0418 21:20:53.738886 99224 layer_factory.hpp:77] Creating layer conv7
I0418 21:20:53.738894 99224 net.cpp:84] Creating Layer conv7
I0418 21:20:53.738898 99224 net.cpp:406] conv7 <- conv6
I0418 21:20:53.738903 99224 net.cpp:380] conv7 -> conv7
I0418 21:20:53.740126 99224 net.cpp:122] Setting up conv7
I0418 21:20:53.740136 99224 net.cpp:129] Top shape: 2 64 41 41 (215168)
I0418 21:20:53.740139 99224 net.cpp:137] Memory required for data: 11242528
I0418 21:20:53.740144 99224 layer_factory.hpp:77] Creating layer relu7
I0418 21:20:53.740149 99224 net.cpp:84] Creating Layer relu7
I0418 21:20:53.740154 99224 net.cpp:406] relu7 <- conv7
I0418 21:20:53.740157 99224 net.cpp:367] relu7 -> conv7 (in-place)
I0418 21:20:53.740173 99224 net.cpp:122] Setting up relu7
I0418 21:20:53.740177 99224 net.cpp:129] Top shape: 2 64 41 41 (215168)
I0418 21:20:53.740180 99224 net.cpp:137] Memory required for data: 12103200
I0418 21:20:53.740183 99224 layer_factory.hpp:77] Creating layer conv8
I0418 21:20:53.740193 99224 net.cpp:84] Creating Layer conv8
I0418 21:20:53.740196 99224 net.cpp:406] conv8 <- conv7
I0418 21:20:53.740200 99224 net.cpp:380] conv8 -> conv8
I0418 21:20:53.741430 99224 net.cpp:122] Setting up conv8
I0418 21:20:53.741438 99224 net.cpp:129] Top shape: 2 64 41 41 (215168)
I0418 21:20:53.741441 99224 net.cpp:137] Memory required for data: 12963872
I0418 21:20:53.741446 99224 layer_factory.hpp:77] Creating layer relu8
I0418 21:20:53.741451 99224 net.cpp:84] Creating Layer relu8
I0418 21:20:53.741466 99224 net.cpp:406] relu8 <- conv8
I0418 21:20:53.741470 99224 net.cpp:367] relu8 -> conv8 (in-place)
I0418 21:20:53.741487 99224 net.cpp:122] Setting up relu8
I0418 21:20:53.741490 99224 net.cpp:129] Top shape: 2 64 41 41 (215168)
I0418 21:20:53.741493 99224 net.cpp:137] Memory required for data: 13824544
I0418 21:20:53.741497 99224 layer_factory.hpp:77] Creating layer conv9
I0418 21:20:53.741504 99224 net.cpp:84] Creating Layer conv9
I0418 21:20:53.741508 99224 net.cpp:406] conv9 <- conv8
I0418 21:20:53.741513 99224 net.cpp:380] conv9 -> conv9
I0418 21:20:53.742790 99224 net.cpp:122] Setting up conv9
I0418 21:20:53.742799 99224 net.cpp:129] Top shape: 2 64 41 41 (215168)
I0418 21:20:53.742815 99224 net.cpp:137] Memory required for data: 14685216
I0418 21:20:53.742825 99224 layer_factory.hpp:77] Creating layer relu9
I0418 21:20:53.742830 99224 net.cpp:84] Creating Layer relu9
I0418 21:20:53.742833 99224 net.cpp:406] relu9 <- conv9
I0418 21:20:53.742838 99224 net.cpp:367] relu9 -> conv9 (in-place)
I0418 21:20:53.742842 99224 net.cpp:122] Setting up relu9
I0418 21:20:53.742846 99224 net.cpp:129] Top shape: 2 64 41 41 (215168)
I0418 21:20:53.742849 99224 net.cpp:137] Memory required for data: 15545888
I0418 21:20:53.742852 99224 layer_factory.hpp:77] Creating layer conv10
I0418 21:20:53.742859 99224 net.cpp:84] Creating Layer conv10
I0418 21:20:53.742863 99224 net.cpp:406] conv10 <- conv9
I0418 21:20:53.742868 99224 net.cpp:380] conv10 -> conv10
I0418 21:20:53.744211 99224 net.cpp:122] Setting up conv10
I0418 21:20:53.744221 99224 net.cpp:129] Top shape: 2 64 41 41 (215168)
I0418 21:20:53.744235 99224 net.cpp:137] Memory required for data: 16406560
I0418 21:20:53.744240 99224 layer_factory.hpp:77] Creating layer relu10
I0418 21:20:53.744246 99224 net.cpp:84] Creating Layer relu10
I0418 21:20:53.744249 99224 net.cpp:406] relu10 <- conv10
I0418 21:20:53.744254 99224 net.cpp:367] relu10 -> conv10 (in-place)
I0418 21:20:53.744259 99224 net.cpp:122] Setting up relu10
I0418 21:20:53.744263 99224 net.cpp:129] Top shape: 2 64 41 41 (215168)
I0418 21:20:53.744266 99224 net.cpp:137] Memory required for data: 17267232
I0418 21:20:53.744269 99224 layer_factory.hpp:77] Creating layer conv11
I0418 21:20:53.744277 99224 net.cpp:84] Creating Layer conv11
I0418 21:20:53.744279 99224 net.cpp:406] conv11 <- conv10
I0418 21:20:53.744285 99224 net.cpp:380] conv11 -> conv11
I0418 21:20:53.745766 99224 net.cpp:122] Setting up conv11
I0418 21:20:53.745779 99224 net.cpp:129] Top shape: 2 64 41 41 (215168)
I0418 21:20:53.745782 99224 net.cpp:137] Memory required for data: 18127904
I0418 21:20:53.745789 99224 layer_factory.hpp:77] Creating layer relu11
I0418 21:20:53.745795 99224 net.cpp:84] Creating Layer relu11
I0418 21:20:53.745798 99224 net.cpp:406] relu11 <- conv11
I0418 21:20:53.745803 99224 net.cpp:367] relu11 -> conv11 (in-place)
I0418 21:20:53.745810 99224 net.cpp:122] Setting up relu11
I0418 21:20:53.745813 99224 net.cpp:129] Top shape: 2 64 41 41 (215168)
I0418 21:20:53.745816 99224 net.cpp:137] Memory required for data: 18988576
I0418 21:20:53.745820 99224 layer_factory.hpp:77] Creating layer conv12
I0418 21:20:53.745827 99224 net.cpp:84] Creating Layer conv12
I0418 21:20:53.745836 99224 net.cpp:406] conv12 <- conv11
I0418 21:20:53.745851 99224 net.cpp:380] conv12 -> conv12
I0418 21:20:53.747733 99224 net.cpp:122] Setting up conv12
I0418 21:20:53.747746 99224 net.cpp:129] Top shape: 2 64 41 41 (215168)
I0418 21:20:53.747761 99224 net.cpp:137] Memory required for data: 19849248
I0418 21:20:53.747786 99224 layer_factory.hpp:77] Creating layer relu12
I0418 21:20:53.747792 99224 net.cpp:84] Creating Layer relu12
I0418 21:20:53.747795 99224 net.cpp:406] relu12 <- conv12
I0418 21:20:53.747800 99224 net.cpp:367] relu12 -> conv12 (in-place)
I0418 21:20:53.747807 99224 net.cpp:122] Setting up relu12
I0418 21:20:53.747812 99224 net.cpp:129] Top shape: 2 64 41 41 (215168)
I0418 21:20:53.747814 99224 net.cpp:137] Memory required for data: 20709920
I0418 21:20:53.747817 99224 layer_factory.hpp:77] Creating layer conv13
I0418 21:20:53.747825 99224 net.cpp:84] Creating Layer conv13
I0418 21:20:53.747834 99224 net.cpp:406] conv13 <- conv12
I0418 21:20:53.747840 99224 net.cpp:380] conv13 -> conv13
I0418 21:20:53.749186 99224 net.cpp:122] Setting up conv13
I0418 21:20:53.749195 99224 net.cpp:129] Top shape: 2 64 41 41 (215168)
I0418 21:20:53.749210 99224 net.cpp:137] Memory required for data: 21570592
I0418 21:20:53.749215 99224 layer_factory.hpp:77] Creating layer relu13
I0418 21:20:53.749220 99224 net.cpp:84] Creating Layer relu13
I0418 21:20:53.749224 99224 net.cpp:406] relu13 <- conv13
I0418 21:20:53.749228 99224 net.cpp:367] relu13 -> conv13 (in-place)
I0418 21:20:53.749233 99224 net.cpp:122] Setting up relu13
I0418 21:20:53.749238 99224 net.cpp:129] Top shape: 2 64 41 41 (215168)
I0418 21:20:53.749240 99224 net.cpp:137] Memory required for data: 22431264
I0418 21:20:53.749243 99224 layer_factory.hpp:77] Creating layer conv14
I0418 21:20:53.749251 99224 net.cpp:84] Creating Layer conv14
I0418 21:20:53.749254 99224 net.cpp:406] conv14 <- conv13
I0418 21:20:53.749259 99224 net.cpp:380] conv14 -> conv14
I0418 21:20:53.750576 99224 net.cpp:122] Setting up conv14
I0418 21:20:53.750587 99224 net.cpp:129] Top shape: 2 64 41 41 (215168)
I0418 21:20:53.750591 99224 net.cpp:137] Memory required for data: 23291936
I0418 21:20:53.750596 99224 layer_factory.hpp:77] Creating layer relu14
I0418 21:20:53.750602 99224 net.cpp:84] Creating Layer relu14
I0418 21:20:53.750604 99224 net.cpp:406] relu14 <- conv14
I0418 21:20:53.750609 99224 net.cpp:367] relu14 -> conv14 (in-place)
I0418 21:20:53.750614 99224 net.cpp:122] Setting up relu14
I0418 21:20:53.750618 99224 net.cpp:129] Top shape: 2 64 41 41 (215168)
I0418 21:20:53.750620 99224 net.cpp:137] Memory required for data: 24152608
I0418 21:20:53.750623 99224 layer_factory.hpp:77] Creating layer conv15
I0418 21:20:53.750632 99224 net.cpp:84] Creating Layer conv15
I0418 21:20:53.750634 99224 net.cpp:406] conv15 <- conv14
I0418 21:20:53.750639 99224 net.cpp:380] conv15 -> conv15
I0418 21:20:53.751894 99224 net.cpp:122] Setting up conv15
I0418 21:20:53.751904 99224 net.cpp:129] Top shape: 2 64 41 41 (215168)
I0418 21:20:53.751919 99224 net.cpp:137] Memory required for data: 25013280
I0418 21:20:53.751925 99224 layer_factory.hpp:77] Creating layer relu15
I0418 21:20:53.751931 99224 net.cpp:84] Creating Layer relu15
I0418 21:20:53.751935 99224 net.cpp:406] relu15 <- conv15
I0418 21:20:53.751940 99224 net.cpp:367] relu15 -> conv15 (in-place)
I0418 21:20:53.751945 99224 net.cpp:122] Setting up relu15
I0418 21:20:53.751948 99224 net.cpp:129] Top shape: 2 64 41 41 (215168)
I0418 21:20:53.751952 99224 net.cpp:137] Memory required for data: 25873952
I0418 21:20:53.751955 99224 layer_factory.hpp:77] Creating layer conv16
I0418 21:20:53.751965 99224 net.cpp:84] Creating Layer conv16
I0418 21:20:53.751968 99224 net.cpp:406] conv16 <- conv15
I0418 21:20:53.751974 99224 net.cpp:380] conv16 -> conv16
I0418 21:20:53.753245 99224 net.cpp:122] Setting up conv16
I0418 21:20:53.753253 99224 net.cpp:129] Top shape: 2 64 41 41 (215168)
I0418 21:20:53.753257 99224 net.cpp:137] Memory required for data: 26734624
I0418 21:20:53.753262 99224 layer_factory.hpp:77] Creating layer relu16
I0418 21:20:53.753268 99224 net.cpp:84] Creating Layer relu16
I0418 21:20:53.753283 99224 net.cpp:406] relu16 <- conv16
I0418 21:20:53.753288 99224 net.cpp:367] relu16 -> conv16 (in-place)
I0418 21:20:53.753293 99224 net.cpp:122] Setting up relu16
I0418 21:20:53.753296 99224 net.cpp:129] Top shape: 2 64 41 41 (215168)
I0418 21:20:53.753299 99224 net.cpp:137] Memory required for data: 27595296
I0418 21:20:53.753303 99224 layer_factory.hpp:77] Creating layer conv17
I0418 21:20:53.753309 99224 net.cpp:84] Creating Layer conv17
I0418 21:20:53.753312 99224 net.cpp:406] conv17 <- conv16
I0418 21:20:53.753317 99224 net.cpp:380] conv17 -> conv17
I0418 21:20:53.754544 99224 net.cpp:122] Setting up conv17
I0418 21:20:53.754554 99224 net.cpp:129] Top shape: 2 64 41 41 (215168)
I0418 21:20:53.754556 99224 net.cpp:137] Memory required for data: 28455968
I0418 21:20:53.754567 99224 layer_factory.hpp:77] Creating layer relu17
I0418 21:20:53.754573 99224 net.cpp:84] Creating Layer relu17
I0418 21:20:53.754576 99224 net.cpp:406] relu17 <- conv17
I0418 21:20:53.754580 99224 net.cpp:367] relu17 -> conv17 (in-place)
I0418 21:20:53.754585 99224 net.cpp:122] Setting up relu17
I0418 21:20:53.754590 99224 net.cpp:129] Top shape: 2 64 41 41 (215168)
I0418 21:20:53.754592 99224 net.cpp:137] Memory required for data: 29316640
I0418 21:20:53.754595 99224 layer_factory.hpp:77] Creating layer conv18
I0418 21:20:53.754602 99224 net.cpp:84] Creating Layer conv18
I0418 21:20:53.754606 99224 net.cpp:406] conv18 <- conv17
I0418 21:20:53.754611 99224 net.cpp:380] conv18 -> conv18
I0418 21:20:53.755844 99224 net.cpp:122] Setting up conv18
I0418 21:20:53.755853 99224 net.cpp:129] Top shape: 2 64 41 41 (215168)
I0418 21:20:53.755856 99224 net.cpp:137] Memory required for data: 30177312
I0418 21:20:53.755861 99224 layer_factory.hpp:77] Creating layer relu18
I0418 21:20:53.755867 99224 net.cpp:84] Creating Layer relu18
I0418 21:20:53.755869 99224 net.cpp:406] relu18 <- conv18
I0418 21:20:53.755874 99224 net.cpp:367] relu18 -> conv18 (in-place)
I0418 21:20:53.755879 99224 net.cpp:122] Setting up relu18
I0418 21:20:53.755883 99224 net.cpp:129] Top shape: 2 64 41 41 (215168)
I0418 21:20:53.755885 99224 net.cpp:137] Memory required for data: 31037984
I0418 21:20:53.755888 99224 layer_factory.hpp:77] Creating layer conv19
I0418 21:20:53.755897 99224 net.cpp:84] Creating Layer conv19
I0418 21:20:53.755899 99224 net.cpp:406] conv19 <- conv18
I0418 21:20:53.755904 99224 net.cpp:380] conv19 -> conv19
I0418 21:20:53.757647 99224 net.cpp:122] Setting up conv19
I0418 21:20:53.757659 99224 net.cpp:129] Top shape: 2 64 41 41 (215168)
I0418 21:20:53.757663 99224 net.cpp:137] Memory required for data: 31898656
I0418 21:20:53.757669 99224 layer_factory.hpp:77] Creating layer relu19
I0418 21:20:53.757675 99224 net.cpp:84] Creating Layer relu19
I0418 21:20:53.757678 99224 net.cpp:406] relu19 <- conv19
I0418 21:20:53.757683 99224 net.cpp:367] relu19 -> conv19 (in-place)
I0418 21:20:53.757689 99224 net.cpp:122] Setting up relu19
I0418 21:20:53.757692 99224 net.cpp:129] Top shape: 2 64 41 41 (215168)
I0418 21:20:53.757695 99224 net.cpp:137] Memory required for data: 32759328
I0418 21:20:53.757699 99224 layer_factory.hpp:77] Creating layer conv20
I0418 21:20:53.757706 99224 net.cpp:84] Creating Layer conv20
I0418 21:20:53.757710 99224 net.cpp:406] conv20 <- conv19
I0418 21:20:53.757714 99224 net.cpp:380] conv20 -> conv20
I0418 21:20:53.757925 99224 net.cpp:122] Setting up conv20
I0418 21:20:53.757931 99224 net.cpp:129] Top shape: 2 1 41 41 (3362)
I0418 21:20:53.757936 99224 net.cpp:137] Memory required for data: 32772776
I0418 21:20:53.757941 99224 layer_factory.hpp:77] Creating layer sum
I0418 21:20:53.757947 99224 net.cpp:84] Creating Layer sum
I0418 21:20:53.757951 99224 net.cpp:406] sum <- data_data_0_split_1
I0418 21:20:53.757956 99224 net.cpp:406] sum <- conv20
I0418 21:20:53.757959 99224 net.cpp:380] sum -> sum
I0418 21:20:53.757979 99224 net.cpp:122] Setting up sum
I0418 21:20:53.757984 99224 net.cpp:129] Top shape: 2 1 41 41 (3362)
I0418 21:20:53.757987 99224 net.cpp:137] Memory required for data: 32786224
I0418 21:20:53.757989 99224 layer_factory.hpp:77] Creating layer loss
I0418 21:20:53.758005 99224 net.cpp:84] Creating Layer loss
I0418 21:20:53.758009 99224 net.cpp:406] loss <- sum
I0418 21:20:53.758013 99224 net.cpp:406] loss <- label
I0418 21:20:53.758018 99224 net.cpp:380] loss -> loss
I0418 21:20:53.758049 99224 net.cpp:122] Setting up loss
…
