…
  stage: ""
}
I0419 10:05:28.951843 105766 solver.cpp:87] Creating training net from net file: SRCNN_train.prototxt
I0419 10:05:28.952227 105766 net.cpp:294] The NetState phase (0) differed from the phase (1) specified by a rule in layer data
I0419 10:05:28.952334 105766 net.cpp:51] Initializing net from parameters: 
name: "SRCNN"
state {
  phase: TRAIN
  level: 0
  stage: ""
}
layer {
  name: "data"
  type: "HDF5Data"
  top: "data"
  top: "label"
  include {
    phase: TRAIN
  }
  hdf5_data_param {
    source: "train.txt"
    batch_size: 128
  }
}
layer {
  name: "conv1"
  type: "Convolution"
  bottom: "data"
  top: "conv1"
  param {
    lr_mult: 1
  }
  param {
    lr_mult: 0.1
  }
  convolution_param {
    num_output: 64
    pad: 1
    kernel_size: 3
    stride: 1
    weight_filler {
      type: "gaussian"
      std: 0.001
    }
    bias_filler {
      type: "constant"
      value: 0
    }
  }
}
layer {
  name: "relu1"
  type: "ReLU"
  bottom: "conv1"
  top: "conv1"
}
layer {
  name: "pool1"
  type: "Pooling"
  bottom: "conv1"
  top: "pool1"
  pooling_param {
    pool: MAX
    kernel_size: 2
    stride: 2
  }
}
layer {
  name: "conv2"
  type: "Convolution"
  bottom: "pool1"
  top: "conv2"
  param {
    lr_mult: 1
  }
  param {
    lr_mult: 0.1
  }
  convolution_param {
    num_output: 64
    pad: 1
    kernel_size: 3
    stride: 1
    weight_filler {
      type: "gaussian"
      std: 0.001
    }
    bias_filler {
      type: "constant"
      value: 0
    }
  }
}
layer {
  name: "relu2"
  type: "ReLU"
  bottom: "conv2"
  top: "conv2"
}
layer {
  name: "pool2"
  type: "Pooling"
  bottom: "conv2"
  top: "pool2"
  pooling_param {
    pool: MAX
    kernel_size: 2
    stride: 1
  }
}
layer {
  name: "conv3"
  type: "Convolution"
  bottom: "pool2"
  top: "conv3"
  param {
    lr_mult: 0.1
  }
  param {
    lr_mult: 0.1
  }
  convolution_param {
    num_output: 1
    pad: 1
    kernel_size: 3
    stride: 1
    weight_filler {
      type: "gaussian"
      std: 0.001
    }
    bias_filler {
      type: "constant"
      value: 0
    }
  }
}
layer {
  name: "loss"
  type: "EuclideanLoss"
  bottom: "conv3"
  bottom: "label"
  top: "loss"
}
I0419 10:05:28.952412 105766 layer_factory.hpp:77] Creating layer data
I0419 10:05:28.952430 105766 net.cpp:84] Creating Layer data
I0419 10:05:28.952440 105766 net.cpp:380] data -> data
I0419 10:05:28.952469 105766 net.cpp:380] data -> label
I0419 10:05:28.952486 105766 hdf5_data_layer.cpp:80] Loading list of HDF5 filenames from: train.txt
I0419 10:05:28.952517 105766 hdf5_data_layer.cpp:94] Number of HDF5 files: 1
I0419 10:05:28.953565 105766 hdf5.cpp:32] Datatype class: H5T_FLOAT
I0419 10:05:28.982854 105766 net.cpp:122] Setting up data
I0419 10:05:28.982908 105766 net.cpp:129] Top shape: 128 1 41 41 (215168)
I0419 10:05:28.982915 105766 net.cpp:129] Top shape: 128 1 20 20 (51200)
I0419 10:05:28.982920 105766 net.cpp:137] Memory required for data: 1065472
I0419 10:05:28.982930 105766 layer_factory.hpp:77] Creating layer conv1
I0419 10:05:28.982962 105766 net.cpp:84] Creating Layer conv1
I0419 10:05:28.982970 105766 net.cpp:406] conv1 <- data
I0419 10:05:28.982986 105766 net.cpp:380] conv1 -> conv1
I0419 10:05:28.984967 105766 net.cpp:122] Setting up conv1
I0419 10:05:28.984992 105766 net.cpp:129] Top shape: 128 64 41 41 (13770752)
I0419 10:05:28.984997 105766 net.cpp:137] Memory required for data: 56148480
I0419 10:05:28.985015 105766 layer_factory.hpp:77] Creating layer relu1
I0419 10:05:28.985028 105766 net.cpp:84] Creating Layer relu1
I0419 10:05:28.985033 105766 net.cpp:406] relu1 <- conv1
I0419 10:05:28.985038 105766 net.cpp:367] relu1 -> conv1 (in-place)
I0419 10:05:28.985054 105766 net.cpp:122] Setting up relu1
I0419 10:05:28.985090 105766 net.cpp:129] Top shape: 128 64 41 41 (13770752)
I0419 10:05:28.985095 105766 net.cpp:137] Memory required for data: 111231488
I0419 10:05:28.985100 105766 layer_factory.hpp:77] Creating layer pool1
I0419 10:05:28.985107 105766 net.cpp:84] Creating Layer pool1
I0419 10:05:28.985112 105766 net.cpp:406] pool1 <- conv1
I0419 10:05:28.985118 105766 net.cpp:380] pool1 -> pool1
I0419 10:05:28.985172 105766 net.cpp:122] Setting up pool1
I0419 10:05:28.985183 105766 net.cpp:129] Top shape: 128 64 21 21 (3612672)
I0419 10:05:28.985188 105766 net.cpp:137] Memory required for data: 125682176
I0419 10:05:28.985191 105766 layer_factory.hpp:77] Creating layer conv2
I0419 10:05:28.985204 105766 net.cpp:84] Creating Layer conv2
I0419 10:05:28.985211 105766 net.cpp:406] conv2 <- pool1
I0419 10:05:28.985219 105766 net.cpp:380] conv2 -> conv2
I0419 10:05:28.987363 105766 net.cpp:122] Setting up conv2
I0419 10:05:28.987385 105766 net.cpp:129] Top shape: 128 64 21 21 (3612672)
I0419 10:05:28.987390 105766 net.cpp:137] Memory required for data: 140132864
I0419 10:05:28.987401 105766 layer_factory.hpp:77] Creating layer relu2
I0419 10:05:28.987409 105766 net.cpp:84] Creating Layer relu2
I0419 10:05:28.987413 105766 net.cpp:406] relu2 <- conv2
I0419 10:05:28.987421 105766 net.cpp:367] relu2 -> conv2 (in-place)
I0419 10:05:28.987427 105766 net.cpp:122] Setting up relu2
I0419 10:05:28.987433 105766 net.cpp:129] Top shape: 128 64 21 21 (3612672)
I0419 10:05:28.987437 105766 net.cpp:137] Memory required for data: 154583552
I0419 10:05:28.987440 105766 layer_factory.hpp:77] Creating layer pool2
I0419 10:05:28.987448 105766 net.cpp:84] Creating Layer pool2
I0419 10:05:28.987457 105766 net.cpp:406] pool2 <- conv2
I0419 10:05:28.987468 105766 net.cpp:380] pool2 -> pool2
I0419 10:05:28.987506 105766 net.cpp:122] Setting up pool2
I0419 10:05:28.987515 105766 net.cpp:129] Top shape: 128 64 20 20 (3276800)
I0419 10:05:28.987519 105766 net.cpp:137] Memory required for data: 167690752
I0419 10:05:28.987524 105766 layer_factory.hpp:77] Creating layer conv3
I0419 10:05:28.987535 105766 net.cpp:84] Creating Layer conv3
I0419 10:05:28.987541 105766 net.cpp:406] conv3 <- pool2
I0419 10:05:28.987550 105766 net.cpp:380] conv3 -> conv3
I0419 10:05:28.987793 105766 net.cpp:122] Setting up conv3
I0419 10:05:28.987807 105766 net.cpp:129] Top shape: 128 1 20 20 (51200)
I0419 10:05:28.987812 105766 net.cpp:137] Memory required for data: 167895552
I0419 10:05:28.987821 105766 layer_factory.hpp:77] Creating layer loss
I0419 10:05:28.987838 105766 net.cpp:84] Creating Layer loss
I0419 10:05:28.987846 105766 net.cpp:406] loss <- conv3
I0419 10:05:28.987851 105766 net.cpp:406] loss <- label
I0419 10:05:28.987859 105766 net.cpp:380] loss -> loss
I0419 10:05:28.987903 105766 net.cpp:122] Setting up loss
…
I0419 10:05:28.987999 105766 net.cpp:255] Network initialization done.
I0419 10:05:28.988314 105766 solver.cpp:172] Creating test net (#0) specified by net file: SRCNN_train.prototxt
I0419 10:05:28.988348 105766 net.cpp:294] The NetState phase (1) differed from the phase (0) specified by a rule in layer data
I0419 10:05:28.988461 105766 net.cpp:51] Initializing net from parameters: 
name: "SRCNN"
state {
  phase: TEST
}
layer {
  name: "data"
  type: "HDF5Data"
  top: "data"
  top: "label"
  include {
    phase: TEST
  }
  hdf5_data_param {
    source: "test.txt"
    batch_size: 2
  }
}
layer {
  name: "conv1"
  type: "Convolution"
  bottom: "data"
  top: "conv1"
  param {
    lr_mult: 1
  }
  param {
    lr_mult: 0.1
  }
  convolution_param {
    num_output: 64
    pad: 1
    kernel_size: 3
    stride: 1
    weight_filler {
      type: "gaussian"
      std: 0.001
    }
    bias_filler {
      type: "constant"
      value: 0
    }
  }
}
layer {
  name: "relu1"
  type: "ReLU"
  bottom: "conv1"
  top: "conv1"
}
layer {
  name: "pool1"
  type: "Pooling"
  bottom: "conv1"
  top: "pool1"
  pooling_param {
    pool: MAX
    kernel_size: 2
    stride: 2
  }
}
layer {
  name: "conv2"
  type: "Convolution"
  bottom: "pool1"
  top: "conv2"
  param {
    lr_mult: 1
  }
  param {
    lr_mult: 0.1
  }
  convolution_param {
    num_output: 64
    pad: 1
    kernel_size: 3
    stride: 1
    weight_filler {
      type: "gaussian"
      std: 0.001
    }
    bias_filler {
      type: "constant"
      value: 0
    }
  }
}
layer {
  name: "relu2"
  type: "ReLU"
  bottom: "conv2"
  top: "conv2"
}
layer {
  name: "pool2"
  type: "Pooling"
  bottom: "conv2"
  top: "pool2"
  pooling_param {
    pool: MAX
    kernel_size: 2
    stride: 1
  }
}
layer {
  name: "conv3"
  type: "Convolution"
  bottom: "pool2"
  top: "conv3"
  param {
    lr_mult: 0.1
  }
  param {
    lr_mult: 0.1
  }
  convolution_param {
    num_output: 1
    pad: 1
    kernel_size: 3
    stride: 1
    weight_filler {
      type: "gaussian"
      std: 0.001
    }
    bias_filler {
      type: "constant"
      value: 0
    }
  }
}
layer {
  name: "loss"
  type: "EuclideanLoss"
  bottom: "conv3"
  bottom: "label"
  top: "loss"
}
I0419 10:05:28.988514 105766 layer_factory.hpp:77] Creating layer data
I0419 10:05:28.988523 105766 net.cpp:84] Creating Layer data
I0419 10:05:28.988530 105766 net.cpp:380] data -> data
I0419 10:05:28.988539 105766 net.cpp:380] data -> label
I0419 10:05:28.988548 105766 hdf5_data_layer.cpp:80] Loading list of HDF5 filenames from: test.txt
I0419 10:05:28.988569 105766 hdf5_data_layer.cpp:94] Number of HDF5 files: 1
I0419 10:05:29.048200 105766 net.cpp:122] Setting up data
I0419 10:05:29.048252 105766 net.cpp:129] Top shape: 2 1 41 41 (3362)
I0419 10:05:29.048261 105766 net.cpp:129] Top shape: 2 1 20 20 (800)
I0419 10:05:29.048265 105766 net.cpp:137] Memory required for data: 16648
I0419 10:05:29.048275 105766 layer_factory.hpp:77] Creating layer conv1
I0419 10:05:29.048301 105766 net.cpp:84] Creating Layer conv1
I0419 10:05:29.048308 105766 net.cpp:406] conv1 <- data
I0419 10:05:29.048318 105766 net.cpp:380] conv1 -> conv1
I0419 10:05:29.048599 105766 net.cpp:122] Setting up conv1
I0419 10:05:29.048611 105766 net.cpp:129] Top shape: 2 64 41 41 (215168)
I0419 10:05:29.048616 105766 net.cpp:137] Memory required for data: 877320
I0419 10:05:29.048629 105766 layer_factory.hpp:77] Creating layer relu1
I0419 10:05:29.048640 105766 net.cpp:84] Creating Layer relu1
I0419 10:05:29.048645 105766 net.cpp:406] relu1 <- conv1
I0419 10:05:29.048650 105766 net.cpp:367] relu1 -> conv1 (in-place)
I0419 10:05:29.048657 105766 net.cpp:122] Setting up relu1
I0419 10:05:29.048663 105766 net.cpp:129] Top shape: 2 64 41 41 (215168)
I0419 10:05:29.048667 105766 net.cpp:137] Memory required for data: 1737992
I0419 10:05:29.048671 105766 layer_factory.hpp:77] Creating layer pool1
I0419 10:05:29.048679 105766 net.cpp:84] Creating Layer pool1
I0419 10:05:29.048688 105766 net.cpp:406] pool1 <- conv1
I0419 10:05:29.048694 105766 net.cpp:380] pool1 -> pool1
I0419 10:05:29.048733 105766 net.cpp:122] Setting up pool1
I0419 10:05:29.048743 105766 net.cpp:129] Top shape: 2 64 21 21 (56448)
I0419 10:05:29.048748 105766 net.cpp:137] Memory required for data: 1963784
I0419 10:05:29.048753 105766 layer_factory.hpp:77] Creating layer conv2
I0419 10:05:29.048763 105766 net.cpp:84] Creating Layer conv2
I0419 10:05:29.048791 105766 net.cpp:406] conv2 <- pool1
I0419 10:05:29.048799 105766 net.cpp:380] conv2 -> conv2
I0419 10:05:29.050340 105766 net.cpp:122] Setting up conv2
I0419 10:05:29.050354 105766 net.cpp:129] Top shape: 2 64 21 21 (56448)
I0419 10:05:29.050359 105766 net.cpp:137] Memory required for data: 2189576
I0419 10:05:29.050369 105766 layer_factory.hpp:77] Creating layer relu2
I0419 10:05:29.050375 105766 net.cpp:84] Creating Layer relu2
I0419 10:05:29.050381 105766 net.cpp:406] relu2 <- conv2
I0419 10:05:29.050386 105766 net.cpp:367] relu2 -> conv2 (in-place)
I0419 10:05:29.050393 105766 net.cpp:122] Setting up relu2
I0419 10:05:29.050398 105766 net.cpp:129] Top shape: 2 64 21 21 (56448)
I0419 10:05:29.050402 105766 net.cpp:137] Memory required for data: 2415368
I0419 10:05:29.050407 105766 layer_factory.hpp:77] Creating layer pool2
I0419 10:05:29.050413 105766 net.cpp:84] Creating Layer pool2
I0419 10:05:29.050418 105766 net.cpp:406] pool2 <- conv2
I0419 10:05:29.050423 105766 net.cpp:380] pool2 -> pool2
I0419 10:05:29.050462 105766 net.cpp:122] Setting up pool2
I0419 10:05:29.050472 105766 net.cpp:129] Top shape: 2 64 20 20 (51200)
I0419 10:05:29.050475 105766 net.cpp:137] Memory required for data: 2620168
I0419 10:05:29.050479 105766 layer_factory.hpp:77] Creating layer conv3
I0419 10:05:29.050490 105766 net.cpp:84] Creating Layer conv3
I0419 10:05:29.050498 105766 net.cpp:406] conv3 <- pool2
I0419 10:05:29.050505 105766 net.cpp:380] conv3 -> conv3
I0419 10:05:29.050751 105766 net.cpp:122] Setting up conv3
I0419 10:05:29.050763 105766 net.cpp:129] Top shape: 2 1 20 20 (800)
I0419 10:05:29.050767 105766 net.cpp:137] Memory required for data: 2623368
I0419 10:05:29.050777 105766 layer_factory.hpp:77] Creating layer loss
I0419 10:05:29.050791 105766 net.cpp:84] Creating Layer loss
I0419 10:05:29.050796 105766 net.cpp:406] loss <- conv3
I0419 10:05:29.050801 105766 net.cpp:406] loss <- label
I0419 10:05:29.050806 105766 net.cpp:380] loss -> loss
I0419 10:05:29.050845 105766 net.cpp:122] Setting up loss
…
