…
  stage: ""
}
I0418 20:30:28.949234 94715 solver.cpp:87] Creating training net from net file: SRCNN_train.prototxt
I0418 20:30:28.949576 94715 net.cpp:294] The NetState phase (0) differed from the phase (1) specified by a rule in layer data
I0418 20:30:28.949673 94715 net.cpp:51] Initializing net from parameters: 
name: "SRCNN"
state {
  phase: TRAIN
  level: 0
  stage: ""
}
layer {
  name: "data"
  type: "HDF5Data"
  top: "data"
  top: "label"
  include {
    phase: TRAIN
  }
  hdf5_data_param {
    source: "../train.txt"
    batch_size: 128
  }
}
layer {
  name: "conv1"
  type: "Convolution"
  bottom: "data"
  top: "conv1"
  param {
    lr_mult: 1
  }
  param {
    lr_mult: 0.1
  }
  convolution_param {
    num_output: 64
    pad: 0
    kernel_size: 9
    stride: 1
    weight_filler {
      type: "gaussian"
      std: 0.001
    }
    bias_filler {
      type: "constant"
      value: 0
    }
  }
}
layer {
  name: "relu1"
  type: "ReLU"
  bottom: "conv1"
  top: "conv1"
}
layer {
  name: "conv2"
  type: "Convolution"
  bottom: "conv1"
  top: "conv2"
  param {
    lr_mult: 1
  }
  param {
    lr_mult: 0.1
  }
  convolution_param {
    num_output: 32
    pad: 0
    kernel_size: 1
    stride: 1
    weight_filler {
      type: "gaussian"
      std: 0.001
    }
    bias_filler {
      type: "constant"
      value: 0
    }
  }
}
layer {
  name: "relu2"
  type: "ReLU"
  bottom: "conv2"
  top: "conv2"
}
layer {
  name: "conv3"
  type: "Convolution"
  bottom: "conv2"
  top: "conv3"
  param {
    lr_mult: 0.1
  }
  param {
    lr_mult: 0.1
  }
  convolution_param {
    num_output: 1
    pad: 0
    kernel_size: 5
    stride: 1
    weight_filler {
      type: "gaussian"
      std: 0.001
    }
    bias_filler {
      type: "constant"
      value: 0
    }
  }
}
layer {
  name: "loss"
  type: "EuclideanLoss"
  bottom: "conv3"
  bottom: "label"
  top: "loss"
}
I0418 20:30:28.949743 94715 layer_factory.hpp:77] Creating layer data
I0418 20:30:28.949761 94715 net.cpp:84] Creating Layer data
I0418 20:30:28.949769 94715 net.cpp:380] data -> data
I0418 20:30:28.949795 94715 net.cpp:380] data -> label
I0418 20:30:28.949812 94715 hdf5_data_layer.cpp:80] Loading list of HDF5 filenames from: ../train.txt
I0418 20:30:28.949846 94715 hdf5_data_layer.cpp:94] Number of HDF5 files: 1
I0418 20:30:28.950911 94715 hdf5.cpp:32] Datatype class: H5T_FLOAT
I0418 20:30:29.093283 94715 net.cpp:122] Setting up data
I0418 20:30:29.093334 94715 net.cpp:129] Top shape: 128 1 33 33 (139392)
I0418 20:30:29.093343 94715 net.cpp:129] Top shape: 128 1 21 21 (56448)
I0418 20:30:29.093348 94715 net.cpp:137] Memory required for data: 783360
I0418 20:30:29.093359 94715 layer_factory.hpp:77] Creating layer conv1
I0418 20:30:29.093392 94715 net.cpp:84] Creating Layer conv1
I0418 20:30:29.093400 94715 net.cpp:406] conv1 <- data
I0418 20:30:29.093417 94715 net.cpp:380] conv1 -> conv1
I0418 20:30:29.095645 94715 net.cpp:122] Setting up conv1
I0418 20:30:29.095667 94715 net.cpp:129] Top shape: 128 64 25 25 (5120000)
I0418 20:30:29.095674 94715 net.cpp:137] Memory required for data: 21263360
I0418 20:30:29.095693 94715 layer_factory.hpp:77] Creating layer relu1
I0418 20:30:29.095706 94715 net.cpp:84] Creating Layer relu1
I0418 20:30:29.095711 94715 net.cpp:406] relu1 <- conv1
I0418 20:30:29.095718 94715 net.cpp:367] relu1 -> conv1 (in-place)
I0418 20:30:29.095736 94715 net.cpp:122] Setting up relu1
I0418 20:30:29.095744 94715 net.cpp:129] Top shape: 128 64 25 25 (5120000)
I0418 20:30:29.095749 94715 net.cpp:137] Memory required for data: 41743360
I0418 20:30:29.095754 94715 layer_factory.hpp:77] Creating layer conv2
I0418 20:30:29.095782 94715 net.cpp:84] Creating Layer conv2
I0418 20:30:29.095794 94715 net.cpp:406] conv2 <- conv1
I0418 20:30:29.095839 94715 net.cpp:380] conv2 -> conv2
I0418 20:30:29.096740 94715 net.cpp:122] Setting up conv2
I0418 20:30:29.096760 94715 net.cpp:129] Top shape: 128 32 25 25 (2560000)
I0418 20:30:29.096765 94715 net.cpp:137] Memory required for data: 51983360
I0418 20:30:29.096776 94715 layer_factory.hpp:77] Creating layer relu2
I0418 20:30:29.096786 94715 net.cpp:84] Creating Layer relu2
I0418 20:30:29.096791 94715 net.cpp:406] relu2 <- conv2
I0418 20:30:29.096796 94715 net.cpp:367] relu2 -> conv2 (in-place)
I0418 20:30:29.096806 94715 net.cpp:122] Setting up relu2
I0418 20:30:29.096812 94715 net.cpp:129] Top shape: 128 32 25 25 (2560000)
I0418 20:30:29.096815 94715 net.cpp:137] Memory required for data: 62223360
I0418 20:30:29.096819 94715 layer_factory.hpp:77] Creating layer conv3
I0418 20:30:29.096830 94715 net.cpp:84] Creating Layer conv3
I0418 20:30:29.096834 94715 net.cpp:406] conv3 <- conv2
I0418 20:30:29.096843 94715 net.cpp:380] conv3 -> conv3
I0418 20:30:29.097096 94715 net.cpp:122] Setting up conv3
I0418 20:30:29.097113 94715 net.cpp:129] Top shape: 128 1 21 21 (56448)
I0418 20:30:29.097117 94715 net.cpp:137] Memory required for data: 62449152
I0418 20:30:29.097131 94715 layer_factory.hpp:77] Creating layer loss
I0418 20:30:29.097153 94715 net.cpp:84] Creating Layer loss
I0418 20:30:29.097163 94715 net.cpp:406] loss <- conv3
I0418 20:30:29.097169 94715 net.cpp:406] loss <- label
I0418 20:30:29.097177 94715 net.cpp:380] loss -> loss
I0418 20:30:29.097224 94715 net.cpp:122] Setting up loss
…
I0418 20:30:29.097304 94715 net.cpp:255] Network initialization done.
I0418 20:30:29.097584 94715 solver.cpp:172] Creating test net (#0) specified by net file: SRCNN_train.prototxt
I0418 20:30:29.097615 94715 net.cpp:294] The NetState phase (1) differed from the phase (0) specified by a rule in layer data
I0418 20:30:29.097702 94715 net.cpp:51] Initializing net from parameters: 
name: "SRCNN"
state {
  phase: TEST
}
layer {
  name: "data"
  type: "HDF5Data"
  top: "data"
  top: "label"
  include {
    phase: TEST
  }
  hdf5_data_param {
    source: "../test.txt"
    batch_size: 2
  }
}
layer {
  name: "conv1"
  type: "Convolution"
  bottom: "data"
  top: "conv1"
  param {
    lr_mult: 1
  }
  param {
    lr_mult: 0.1
  }
  convolution_param {
    num_output: 64
    pad: 0
    kernel_size: 9
    stride: 1
    weight_filler {
      type: "gaussian"
      std: 0.001
    }
    bias_filler {
      type: "constant"
      value: 0
    }
  }
}
layer {
  name: "relu1"
  type: "ReLU"
  bottom: "conv1"
  top: "conv1"
}
layer {
  name: "conv2"
  type: "Convolution"
  bottom: "conv1"
  top: "conv2"
  param {
    lr_mult: 1
  }
  param {
    lr_mult: 0.1
  }
  convolution_param {
    num_output: 32
    pad: 0
    kernel_size: 1
    stride: 1
    weight_filler {
      type: "gaussian"
      std: 0.001
    }
    bias_filler {
      type: "constant"
      value: 0
    }
  }
}
layer {
  name: "relu2"
  type: "ReLU"
  bottom: "conv2"
  top: "conv2"
}
layer {
  name: "conv3"
  type: "Convolution"
  bottom: "conv2"
  top: "conv3"
  param {
    lr_mult: 0.1
  }
  param {
    lr_mult: 0.1
  }
  convolution_param {
    num_output: 1
    pad: 0
    kernel_size: 5
    stride: 1
    weight_filler {
      type: "gaussian"
      std: 0.001
    }
    bias_filler {
      type: "constant"
      value: 0
    }
  }
}
layer {
  name: "loss"
  type: "EuclideanLoss"
  bottom: "conv3"
  bottom: "label"
  top: "loss"
}
I0418 20:30:29.097784 94715 layer_factory.hpp:77] Creating layer data
I0418 20:30:29.097800 94715 net.cpp:84] Creating Layer data
I0418 20:30:29.097808 94715 net.cpp:380] data -> data
I0418 20:30:29.097818 94715 net.cpp:380] data -> label
I0418 20:30:29.097826 94715 hdf5_data_layer.cpp:80] Loading list of HDF5 filenames from: ../test.txt
I0418 20:30:29.097851 94715 hdf5_data_layer.cpp:94] Number of HDF5 files: 1
I0418 20:30:29.111971 94715 net.cpp:122] Setting up data
I0418 20:30:29.112020 94715 net.cpp:129] Top shape: 2 1 33 33 (2178)
I0418 20:30:29.112028 94715 net.cpp:129] Top shape: 2 1 21 21 (882)
I0418 20:30:29.112032 94715 net.cpp:137] Memory required for data: 12240
I0418 20:30:29.112040 94715 layer_factory.hpp:77] Creating layer conv1
I0418 20:30:29.112066 94715 net.cpp:84] Creating Layer conv1
I0418 20:30:29.112071 94715 net.cpp:406] conv1 <- data
I0418 20:30:29.112081 94715 net.cpp:380] conv1 -> conv1
I0418 20:30:29.112534 94715 net.cpp:122] Setting up conv1
I0418 20:30:29.112552 94715 net.cpp:129] Top shape: 2 64 25 25 (80000)
I0418 20:30:29.112557 94715 net.cpp:137] Memory required for data: 332240
I0418 20:30:29.112570 94715 layer_factory.hpp:77] Creating layer relu1
I0418 20:30:29.112581 94715 net.cpp:84] Creating Layer relu1
I0418 20:30:29.112586 94715 net.cpp:406] relu1 <- conv1
I0418 20:30:29.112591 94715 net.cpp:367] relu1 -> conv1 (in-place)
I0418 20:30:29.112598 94715 net.cpp:122] Setting up relu1
I0418 20:30:29.112604 94715 net.cpp:129] Top shape: 2 64 25 25 (80000)
I0418 20:30:29.112608 94715 net.cpp:137] Memory required for data: 652240
I0418 20:30:29.112612 94715 layer_factory.hpp:77] Creating layer conv2
I0418 20:30:29.112622 94715 net.cpp:84] Creating Layer conv2
I0418 20:30:29.112627 94715 net.cpp:406] conv2 <- conv1
I0418 20:30:29.112632 94715 net.cpp:380] conv2 -> conv2
I0418 20:30:29.113031 94715 net.cpp:122] Setting up conv2
I0418 20:30:29.113049 94715 net.cpp:129] Top shape: 2 32 25 25 (40000)
I0418 20:30:29.113054 94715 net.cpp:137] Memory required for data: 812240
I0418 20:30:29.113064 94715 layer_factory.hpp:77] Creating layer relu2
I0418 20:30:29.113071 94715 net.cpp:84] Creating Layer relu2
I0418 20:30:29.113076 94715 net.cpp:406] relu2 <- conv2
I0418 20:30:29.113082 94715 net.cpp:367] relu2 -> conv2 (in-place)
I0418 20:30:29.113090 94715 net.cpp:122] Setting up relu2
I0418 20:30:29.113095 94715 net.cpp:129] Top shape: 2 32 25 25 (40000)
I0418 20:30:29.113099 94715 net.cpp:137] Memory required for data: 972240
I0418 20:30:29.113102 94715 layer_factory.hpp:77] Creating layer conv3
I0418 20:30:29.113112 94715 net.cpp:84] Creating Layer conv3
I0418 20:30:29.113122 94715 net.cpp:406] conv3 <- conv2
I0418 20:30:29.113128 94715 net.cpp:380] conv3 -> conv3
I0418 20:30:29.113384 94715 net.cpp:122] Setting up conv3
I0418 20:30:29.113400 94715 net.cpp:129] Top shape: 2 1 21 21 (882)
I0418 20:30:29.113405 94715 net.cpp:137] Memory required for data: 975768
I0418 20:30:29.113415 94715 layer_factory.hpp:77] Creating layer loss
I0418 20:30:29.113425 94715 net.cpp:84] Creating Layer loss
I0418 20:30:29.113432 94715 net.cpp:406] loss <- conv3
I0418 20:30:29.113437 94715 net.cpp:406] loss <- label
I0418 20:30:29.113443 94715 net.cpp:380] loss -> loss
I0418 20:30:29.113482 94715 net.cpp:122] Setting up loss
…
