…
  stage: ""
}
I0418 19:24:13.719627 91996 solver.cpp:87] Creating training net from net file: SRCNN_train.prototxt
I0418 19:24:13.719954 91996 net.cpp:294] The NetState phase (0) differed from the phase (1) specified by a rule in layer data
I0418 19:24:13.720048 91996 net.cpp:51] Initializing net from parameters: 
name: "SRCNN"
state {
  phase: TRAIN
  level: 0
  stage: ""
}
layer {
  name: "data"
  type: "HDF5Data"
  top: "data"
  top: "label"
  include {
    phase: TRAIN
  }
  hdf5_data_param {
    source: "../train.txt"
    batch_size: 128
  }
}
layer {
  name: "conv1"
  type: "Convolution"
  bottom: "data"
  top: "conv1"
  param {
    lr_mult: 1
  }
  param {
    lr_mult: 0.1
  }
  convolution_param {
    num_output: 64
    pad: 0
    kernel_size: 9
    stride: 1
    weight_filler {
      type: "gaussian"
      std: 0.001
    }
    bias_filler {
      type: "constant"
      value: 0
    }
  }
}
layer {
  name: "relu1"
  type: "ReLU"
  bottom: "conv1"
  top: "conv1"
}
layer {
  name: "conv2"
  type: "Convolution"
  bottom: "conv1"
  top: "conv2"
  param {
    lr_mult: 1
  }
  param {
    lr_mult: 0.1
  }
  convolution_param {
    num_output: 32
    pad: 0
    kernel_size: 1
    stride: 1
    weight_filler {
      type: "gaussian"
      std: 0.001
    }
    bias_filler {
      type: "constant"
      value: 0
    }
  }
}
layer {
  name: "relu2"
  type: "ReLU"
  bottom: "conv2"
  top: "conv2"
}
layer {
  name: "conv3"
  type: "Convolution"
  bottom: "conv2"
  top: "conv3"
  param {
    lr_mult: 0.1
  }
  param {
    lr_mult: 0.1
  }
  convolution_param {
    num_output: 1
    pad: 0
    kernel_size: 5
    stride: 1
    weight_filler {
      type: "gaussian"
      std: 0.001
    }
    bias_filler {
      type: "constant"
      value: 0
    }
  }
}
layer {
  name: "loss"
  type: "EuclideanLoss"
  bottom: "conv3"
  bottom: "label"
  top: "loss"
}
I0418 19:24:13.720118 91996 layer_factory.hpp:77] Creating layer data
I0418 19:24:13.720137 91996 net.cpp:84] Creating Layer data
I0418 19:24:13.720150 91996 net.cpp:380] data -> data
I0418 19:24:13.720177 91996 net.cpp:380] data -> label
I0418 19:24:13.720193 91996 hdf5_data_layer.cpp:80] Loading list of HDF5 filenames from: ../train.txt
I0418 19:24:13.720227 91996 hdf5_data_layer.cpp:94] Number of HDF5 files: 1
I0418 19:24:13.721256 91996 hdf5.cpp:32] Datatype class: H5T_FLOAT
I0418 19:24:13.864447 91996 net.cpp:122] Setting up data
I0418 19:24:13.864503 91996 net.cpp:129] Top shape: 128 1 33 33 (139392)
I0418 19:24:13.864512 91996 net.cpp:129] Top shape: 128 1 21 21 (56448)
I0418 19:24:13.864517 91996 net.cpp:137] Memory required for data: 783360
I0418 19:24:13.864527 91996 layer_factory.hpp:77] Creating layer conv1
I0418 19:24:13.864557 91996 net.cpp:84] Creating Layer conv1
I0418 19:24:13.864565 91996 net.cpp:406] conv1 <- data
I0418 19:24:13.864583 91996 net.cpp:380] conv1 -> conv1
I0418 19:24:13.866750 91996 net.cpp:122] Setting up conv1
I0418 19:24:13.866770 91996 net.cpp:129] Top shape: 128 64 25 25 (5120000)
I0418 19:24:13.866776 91996 net.cpp:137] Memory required for data: 21263360
I0418 19:24:13.866796 91996 layer_factory.hpp:77] Creating layer relu1
I0418 19:24:13.866807 91996 net.cpp:84] Creating Layer relu1
I0418 19:24:13.866813 91996 net.cpp:406] relu1 <- conv1
I0418 19:24:13.866821 91996 net.cpp:367] relu1 -> conv1 (in-place)
I0418 19:24:13.866837 91996 net.cpp:122] Setting up relu1
I0418 19:24:13.866847 91996 net.cpp:129] Top shape: 128 64 25 25 (5120000)
I0418 19:24:13.866852 91996 net.cpp:137] Memory required for data: 41743360
I0418 19:24:13.866856 91996 layer_factory.hpp:77] Creating layer conv2
I0418 19:24:13.866868 91996 net.cpp:84] Creating Layer conv2
I0418 19:24:13.866901 91996 net.cpp:406] conv2 <- conv1
I0418 19:24:13.866910 91996 net.cpp:380] conv2 -> conv2
I0418 19:24:13.867794 91996 net.cpp:122] Setting up conv2
I0418 19:24:13.867813 91996 net.cpp:129] Top shape: 128 32 25 25 (2560000)
I0418 19:24:13.867818 91996 net.cpp:137] Memory required for data: 51983360
I0418 19:24:13.867830 91996 layer_factory.hpp:77] Creating layer relu2
I0418 19:24:13.867838 91996 net.cpp:84] Creating Layer relu2
I0418 19:24:13.867844 91996 net.cpp:406] relu2 <- conv2
I0418 19:24:13.867851 91996 net.cpp:367] relu2 -> conv2 (in-place)
I0418 19:24:13.867859 91996 net.cpp:122] Setting up relu2
I0418 19:24:13.867866 91996 net.cpp:129] Top shape: 128 32 25 25 (2560000)
I0418 19:24:13.867871 91996 net.cpp:137] Memory required for data: 62223360
I0418 19:24:13.867875 91996 layer_factory.hpp:77] Creating layer conv3
I0418 19:24:13.867887 91996 net.cpp:84] Creating Layer conv3
I0418 19:24:13.867894 91996 net.cpp:406] conv3 <- conv2
I0418 19:24:13.867902 91996 net.cpp:380] conv3 -> conv3
I0418 19:24:13.868150 91996 net.cpp:122] Setting up conv3
I0418 19:24:13.868163 91996 net.cpp:129] Top shape: 128 1 21 21 (56448)
I0418 19:24:13.868168 91996 net.cpp:137] Memory required for data: 62449152
I0418 19:24:13.868178 91996 layer_factory.hpp:77] Creating layer loss
I0418 19:24:13.868196 91996 net.cpp:84] Creating Layer loss
I0418 19:24:13.868201 91996 net.cpp:406] loss <- conv3
I0418 19:24:13.868206 91996 net.cpp:406] loss <- label
I0418 19:24:13.868213 91996 net.cpp:380] loss -> loss
I0418 19:24:13.868258 91996 net.cpp:122] Setting up loss
…
I0418 19:24:13.868345 91996 net.cpp:255] Network initialization done.
I0418 19:24:13.868612 91996 solver.cpp:172] Creating test net (#0) specified by net file: SRCNN_train.prototxt
I0418 19:24:13.868643 91996 net.cpp:294] The NetState phase (1) differed from the phase (0) specified by a rule in layer data
I0418 19:24:13.868728 91996 net.cpp:51] Initializing net from parameters: 
name: "SRCNN"
state {
  phase: TEST
}
layer {
  name: "data"
  type: "HDF5Data"
  top: "data"
  top: "label"
  include {
    phase: TEST
  }
  hdf5_data_param {
    source: "../test.txt"
    batch_size: 2
  }
}
layer {
  name: "conv1"
  type: "Convolution"
  bottom: "data"
  top: "conv1"
  param {
    lr_mult: 1
  }
  param {
    lr_mult: 0.1
  }
  convolution_param {
    num_output: 64
    pad: 0
    kernel_size: 9
    stride: 1
    weight_filler {
      type: "gaussian"
      std: 0.001
    }
    bias_filler {
      type: "constant"
      value: 0
    }
  }
}
layer {
  name: "relu1"
  type: "ReLU"
  bottom: "conv1"
  top: "conv1"
}
layer {
  name: "conv2"
  type: "Convolution"
  bottom: "conv1"
  top: "conv2"
  param {
    lr_mult: 1
  }
  param {
    lr_mult: 0.1
  }
  convolution_param {
    num_output: 32
    pad: 0
    kernel_size: 1
    stride: 1
    weight_filler {
      type: "gaussian"
      std: 0.001
    }
    bias_filler {
      type: "constant"
      value: 0
    }
  }
}
layer {
  name: "relu2"
  type: "ReLU"
  bottom: "conv2"
  top: "conv2"
}
layer {
  name: "conv3"
  type: "Convolution"
  bottom: "conv2"
  top: "conv3"
  param {
    lr_mult: 0.1
  }
  param {
    lr_mult: 0.1
  }
  convolution_param {
    num_output: 1
    pad: 0
    kernel_size: 5
    stride: 1
    weight_filler {
      type: "gaussian"
      std: 0.001
    }
    bias_filler {
      type: "constant"
      value: 0
    }
  }
}
layer {
  name: "loss"
  type: "EuclideanLoss"
  bottom: "conv3"
  bottom: "label"
  top: "loss"
}
I0418 19:24:13.868793 91996 layer_factory.hpp:77] Creating layer data
I0418 19:24:13.868803 91996 net.cpp:84] Creating Layer data
I0418 19:24:13.868810 91996 net.cpp:380] data -> data
I0418 19:24:13.868819 91996 net.cpp:380] data -> label
I0418 19:24:13.868829 91996 hdf5_data_layer.cpp:80] Loading list of HDF5 filenames from: ../test.txt
I0418 19:24:13.868851 91996 hdf5_data_layer.cpp:94] Number of HDF5 files: 1
I0418 19:24:13.882769 91996 net.cpp:122] Setting up data
I0418 19:24:13.882813 91996 net.cpp:129] Top shape: 2 1 33 33 (2178)
I0418 19:24:13.882822 91996 net.cpp:129] Top shape: 2 1 21 21 (882)
I0418 19:24:13.882827 91996 net.cpp:137] Memory required for data: 12240
I0418 19:24:13.882834 91996 layer_factory.hpp:77] Creating layer conv1
I0418 19:24:13.882856 91996 net.cpp:84] Creating Layer conv1
I0418 19:24:13.882863 91996 net.cpp:406] conv1 <- data
I0418 19:24:13.882872 91996 net.cpp:380] conv1 -> conv1
I0418 19:24:13.883303 91996 net.cpp:122] Setting up conv1
I0418 19:24:13.883317 91996 net.cpp:129] Top shape: 2 64 25 25 (80000)
I0418 19:24:13.883322 91996 net.cpp:137] Memory required for data: 332240
I0418 19:24:13.883334 91996 layer_factory.hpp:77] Creating layer relu1
I0418 19:24:13.883343 91996 net.cpp:84] Creating Layer relu1
I0418 19:24:13.883348 91996 net.cpp:406] relu1 <- conv1
I0418 19:24:13.883355 91996 net.cpp:367] relu1 -> conv1 (in-place)
I0418 19:24:13.883363 91996 net.cpp:122] Setting up relu1
I0418 19:24:13.883369 91996 net.cpp:129] Top shape: 2 64 25 25 (80000)
I0418 19:24:13.883373 91996 net.cpp:137] Memory required for data: 652240
I0418 19:24:13.883378 91996 layer_factory.hpp:77] Creating layer conv2
I0418 19:24:13.883388 91996 net.cpp:84] Creating Layer conv2
I0418 19:24:13.883394 91996 net.cpp:406] conv2 <- conv1
I0418 19:24:13.883400 91996 net.cpp:380] conv2 -> conv2
I0418 19:24:13.883700 91996 net.cpp:122] Setting up conv2
I0418 19:24:13.883713 91996 net.cpp:129] Top shape: 2 32 25 25 (40000)
I0418 19:24:13.883718 91996 net.cpp:137] Memory required for data: 812240
I0418 19:24:13.883728 91996 layer_factory.hpp:77] Creating layer relu2
I0418 19:24:13.883735 91996 net.cpp:84] Creating Layer relu2
I0418 19:24:13.883740 91996 net.cpp:406] relu2 <- conv2
I0418 19:24:13.883746 91996 net.cpp:367] relu2 -> conv2 (in-place)
I0418 19:24:13.883754 91996 net.cpp:122] Setting up relu2
I0418 19:24:13.883762 91996 net.cpp:129] Top shape: 2 32 25 25 (40000)
I0418 19:24:13.883774 91996 net.cpp:137] Memory required for data: 972240
I0418 19:24:13.883780 91996 layer_factory.hpp:77] Creating layer conv3
I0418 19:24:13.883790 91996 net.cpp:84] Creating Layer conv3
I0418 19:24:13.883795 91996 net.cpp:406] conv3 <- conv2
I0418 19:24:13.883801 91996 net.cpp:380] conv3 -> conv3
I0418 19:24:13.884042 91996 net.cpp:122] Setting up conv3
I0418 19:24:13.884055 91996 net.cpp:129] Top shape: 2 1 21 21 (882)
I0418 19:24:13.884060 91996 net.cpp:137] Memory required for data: 975768
I0418 19:24:13.884069 91996 layer_factory.hpp:77] Creating layer loss
I0418 19:24:13.884081 91996 net.cpp:84] Creating Layer loss
I0418 19:24:13.884086 91996 net.cpp:406] loss <- conv3
I0418 19:24:13.884091 91996 net.cpp:406] loss <- label
I0418 19:24:13.884097 91996 net.cpp:380] loss -> loss
I0418 19:24:13.884135 91996 net.cpp:122] Setting up loss
…
